Model/model.pth (torch, 779719 bytes, 24 tensors)

fc1.layer.weight f4 [256, 192]
0	0x3d31d50b	0.043416064
1	0xbc8d012b	-0.017212471
2	0x3d9064af	0.07050454
3	0xbcea471a	-0.028598357
4	0x3ce23224	0.0276118
5	0x3c28e95e	0.010309545
6	0xbc6476a6	-0.013944304
7	0xbc942335	-0.018083194
8	0xbd5bfb8d	-0.053706694
9	0x36875803	4.0335594e-06
10	0xbd0380f3	-0.032105397
11	0xbcf81dbd	-0.030287618
12	0xbc49d97b	-0.012319918
13	0xbd91f2c6	-0.071263835
14	0x3cf3db98	0.029767796
15	0x3ca660d4	0.020309843
16	0x3d3eb3b9	0.046558116
17	0xbd7b9364	-0.06141986
18	0x3d94020e	0.072269544
19	0x3d6283d9	0.05530152
20	0xbb32382f	-0.0027194133
21	0x3c91f3f9	0.01781653
22	0xbc36994f	-0.01114495
23	0x3d173c07	0.03692248
24	0x3c02654d	0.007958722
25	0xbcc75d5a	-0.024336506
26	0xbc93ad94	-0.018027104
27	0x3b931b2f	0.0044893245
28	0x3ca681d0	0.020325571
29	0x3d927e4a	0.07152994
30	0x3d3c2533	0.045933913
31	0xbd64e510	-0.055882514
32	0x3d05a4b9	0.032627795
33	0xbd3ef293	-0.046618056
34	0x3c0cea7e	0.008600829
35	0x3d898e4c	0.06716594
36	0xbd73aa7b	-0.059488755
37	0x3d73ce3c	0.059522852
38	0x3aaecac4	0.0013335575
39	0xbcb132c0	-0.021630645
40	0xbd030dc6	-0.031995557
41	0xbbaa311a	-0.0051938416
42	0x3d59edc7	0.053205278
43	0xbccdca4a	-0.025120873
44	0xbd522226	-0.051302098
45	0x3bf56d0e	0.007489807
46	0x3c73ecf4	0.014888037
47	0xbd723ba8	-0.059138924
48	0xbce788bf	-0.028263448
49	0xbc89afd7	-0.01680748
50	0x3d8b9e03	0.06817248
51	0xbc2d0355	-0.010559876
52	0xbd523f40	-0.05132985
53	0x3b4d3159	0.003130993
54	0x3c1174ce	0.008877946
55	0x3d402681	0.04691172
56	0x3d4910e2	0.049088366
57	0xbd5c58c8	-0.053795606
58	0xbcecaa7a	-0.028889883
59	0x3c93305b	0.017967394
60	0x3d45ce81	0.04829264
61	0x3d209712	0.039206572
62	0xbd945601	-0.072429664
63	0x3d0db6ec	0.034598276
64	0x3d2eab38	0.042643756
65	0xbc431f3d	-0.011909303
66	0xbc536034	-0.012901355
67	0x3d63c28a	0.05560545
68	0x3cb6c3b9	0.022310125
69	0x3c34a99a	0.011026764
70	0xbd863ff5	-0.065551676
71	0x3cf5358d	0.029932762
72	0xbcd58da1	-0.02606851
73	0x3d8f2965	0.06990317
74	0x3bbdcba2	0.005792097
75	0x3cd3bf02	0.025847916
76	0xbd8a7463	-0.0676048
77	0xbd6a754e	-0.057240777
78	0x3d8281e3	0.0637243
79	0xbc2c2c61	-0.010508628
80	0x3c850fde	0.016242918
81	0xbd647442	-0.055774935
82	0xbc39e5b6	-0.011346271
83	0x3d8f5c00	0.069999695
84	0x3d901990	0.07036126
85	0xbd41ec87	-0.04734471
86	0xbd7edf11	-0.06222445
87	0xbc72f0e2	-0.014827939
88	0xbc815364	-0.015786834
89	0xbd8ae2f1	-0.06781567
90	0x3d91d899	0.07121391
91	0x3c8cc35c	0.017182998
92	0x3b9ef7cd	0.0048513175
93	0xbc44c3bc	-0.012009557
94	0xbd25e4d7	-0.04050144
95	0xbc2405cb	-0.010011147
96	0x3d461893	0.04836328
97	0x3d9296a4	0.07157639
98	0x3cde70ea	0.027153451
99	0x3d0edcfa	0.03487871
100	0xbd4c7251	-0.049913708
101	0xbd6f1b37	-0.058375563
102	0x3d1a60a6	0.037689827
103	0x3d812e5d	0.06307671
104	0xbca51c55	-0.020155111
105	0x3d331d48	0.043729097
106	0x3d871c15	0.06597153
107	0xbc25257f	-0.010079741
108	0x3c9dff6f	0.01928684
109	0xbb2b62fd	-0.002615153
110	0xbbba8f2c	-0.005693337
111	0xbd8eaba2	-0.0696633
112	0x3d2f0812	0.042732306
113	0x3cd0ce7a	0.02548908
114	0xbd8ddfc0	-0.069274426
115	0x3d4c93a2	0.04994548
116	0x3d13b626	0.036062382
117	0xbd0bc968	-0.034127623
118	0x3d41ba29	0.047296677
119	0xbd238597	-0.039922323
120	0xbd020314	-0.031741217
121	0xbd1e395b	-0.038628917
122	0xbca15238	-0.019692525
123	0xbd88be51	-0.06676925
124	0xbd863231	-0.06552542
125	0x3d161e44	0.036649957
126	0x3d098522	0.03357423
127	0x3bcb2a12	0.0062000835
128	0xbd370f83	-0.044692528
129	0x3d318d4b	0.043347638
130	0xbd4c03ad	-0.049808193
131	0x3caa9b03	0.020825868
132	0xbc7985f4	-0.015229691
133	0xbd08e7dc	-0.033424243
134	0xbd64926d	-0.055803705
135	0xbc954b17	-0.018224282
136	0xbd816b83	-0.06319334
137	0xbce13630	-0.027491659
138	0x3d819fdd	0.063293196
139	0xbd73d4c8	-0.059529096
140	0xbd528a1f	-0.051401254
141	0xbd7d11c2	-0.061784513
142	0xbcf4eb99	-0.029897498
143	0xbb8de256	-0.00432996
144	0x39534e47	0.00020151689
145	0xbb9ea43f	-0.004841357
146	0x3d4e6410	0.050388396
147	0xbd27fef6	-0.041014634
148	0xbc52e939	-0.012872987
149	0xbd0b0fdf	-0.033950683
150	0x3b1db8b8	0.00240664
151	0xbc755363	-0.014973494
152	0x3d8e8988	0.06959826
153	0x3ca4c1d1	0.02011195
154	0x3bac2469	0.005253364
155	0xbb11770f	-0.0022196209
156	0x3d326401	0.043552402
157	0x3c10cb5b	0.008837546
158	0x3d7ea671	0.06217045
159	0xbbd5f7a8	-0.006529767
160	0x3d34c7cf	0.044135865
161	0xbce8e865	-0.028431127
162	0x3d562930	0.052285373
163	0xbcabb7bd	-0.020961637
164	0x3d1ee7c9	0.038795266
165	0x3d71edb7	0.059064593
166	0x3c9228ac	0.01784166
167	0xbcc9526a	-0.02457543
168	0xbd5a37f3	-0.053276014
169	0xbd058f06	-0.0326071
170	0xbbac6649	-0.005261217
171	0x3cd79f91	0.026321204
172	0xbaaee207	-0.0013342508
173	0x3ccf5c10	0.025312454
174	0xbd7522cb	-0.059847634
175	0x3d87452d	0.06604991
176	0x3c6c1853	0.014410096
177	0x3d27c6cb	0.040961068
178	0x3c4748c2	0.012163343
179	0xbd37d966	-0.04488506
180	0xbd51ebbd	-0.05125021
181	0x390b0f6a	0.00013261815
182	0x3bb72d84	0.0055901427
183	0xbd4298e4	-0.04750909
184	0x3d27060c	0.04077725
185	0x3ca6a44f	0.02034202
186	0xba972891	-0.0011532475
187	0xbce0ffc2	-0.027465705
188	0xbc7e2ec8	-0.015514083
189	0xbd755f69	-0.059905443
190	0x3d351e40	0.0442183
191	0xbd4ffeb4	-0.050780013
192	0x3b468a64	0.003029489
193	0x3d900b77	0.07033437
194	0xbc8ef13c	-0.017449014
195	0xbd495cf7	-0.049160924
196	0xbd316fea	-0.04331962
197	0x3d460acc	0.04835014
198	0x3d749a00	0.05971718
199	0xbcf19006	-0.029487621
200	0xbd3013b8	-0.042987555
201	0xbc97568f	-0.018473892
202	0xbd719766	-0.058982275
203	0x3cbc7d20	0.023008883
204	0xbd6f0c7b	-0.05836151
205	0x3ce96f10	0.028495342
206	0x3d811910	0.063036084
207	0x3d3000f5	0.042969663
208	0xbd7eb2d7	-0.062182274
209	0x3ce1423f	0.027497409
210	0x3d37c360	0.04486406
211	0x3c8e8884	0.01739908
212	0xbd7e55df	-0.06209361
213	0x3cb5f4e7	0.022211505
214	0xbd2813d3	-0.04103453
215	0xbd5044cf	-0.05084687
216	0x3d1e4d82	0.038648136
217	0xbd1ab8c8	-0.037773877
218	0x3bca55f1	0.006174796
219	0xbcdfec6f	-0.02733442
220	0xbd8ba8fa	-0.06819339
221	0xbd42e1d9	-0.047578666
222	0x3d8fa883	0.07014563
223	0x3d3e7ae7	0.046503928
224	0x3c0fea6a	0.008783916
225	0x3c96a7d1	0.018390568
226	0xbd4cad0c	-0.049969718
227	0xbc1acdc4	-0.009448472
228	0x3d90312e	0.0704063
229	0x3d2d13c0	0.042255163
230	0x3d4acdb9	0.0495126
231	0xbcb3181d	-0.021862084
232	0xbc1fe377	-0.009758822
233	0x3d795ffc	0.060882553
234	0xbbaea867	-0.0053301337
235	0xbc8e4827	-0.01736839
236	0xbc0e0d05	-0.008670096
237	0x3d567481	0.0523572
238	0xbcdce2c9	-0.026963608
239	0x3d22fe27	0.03979316
240	0x3c6de805	0.01452065
241	0xbc4960e1	-0.012291164
242	0x3c187b53	0.009306747
243	0x3d2ed763	0.042685878
244	0x3c8f4fbb	0.017494073
245	0x3d81ab39	0.06331486
246	0x3d466953	0.04844029
247	0xbcafcb16	-0.021459144
248	0x3d487603	0.04894067
249	0x3bf9e584	0.0076262373
250	0xbc612b56	-0.013743242
251	0xbd4c637d	-0.049899567
252	0x3d598d82	0.053113468
253	0xbc92cd90	-0.017920285
254	0x3bae7223	0.0053236648
255	0xbd00b8b9	-0.031426165

fc1.layer.bias f4 [256]
0	0xbd82669e	-0.06367229
1	0x3d56d050	0.052444756
2	0x3babb44c	0.005239999
3	0x3c8b9fda	0.017043997
4	0x3cf7d662	0.030253593
5	0x3d91341e	0.07090019
6	0x3d1f8f2f	0.03895491
7	0xbc9b69c9	-0.01897134
8	0xbd6c4d9f	-0.057691213
9	0x3d7454d0	0.059651196
10	0x3d0cf3f4	0.03441234
11	0xbced75f6	-0.028986912
12	0xbd1e3348	-0.038623124
13	0x3c572166	0.013130521
14	0xbbe3982e	-0.0069456315
15	0x3cccf2ab	0.025018057
16	0x3a376c6d	0.00069970527
17	0x3d1555ff	0.036458965
18	0x3d3d0e93	0.046156477
19	0xbd427da8	-0.047483116
20	0xbd77b080	-0.060471058
21	0xbd0c58c7	-0.034264352
22	0x3c8001a8	0.01562579
23	0x3c827e9e	0.015929516
24	0x3c233283	0.009960773
25	0xbd0db045	-0.03459193
26	0x3d873961	0.06602741
27	0xbce0ed6d	-0.027456963
28	0xbcec7d7e	-0.028868433
29	0x3d84593a	0.06462331
30	0xbc7c01d9	-0.0153813
31	0x3d908efe	0.070585236
32	0x3d334529	0.04376713
33	0x3d383f46	0.044982217
34	0x3d8449d9	0.06459398
35	0xbd68ace4	-0.056805506
36	0xbd19f4df	-0.037587043
37	0xbd6d6c94	-0.057964876
38	0xbd2c12db	-0.04201017
39	0xbc1f8e5f	-0.009738534
40	0xbc76ba24	-0.015059028
41	0x3d1d6c1a	0.03843317
42	0xbd340126	-0.043946408
43	0x39b566dd	0.0003459965
44	0x3d674ba3	0.056468617
45	0x3d865c97	0.06560629
46	0xbd8c8e14	-0.06863037
47	0xbca110ee	-0.019661393
48	0xbcf07aac	-0.02935537
49	0xbcd5975a	-0.026073147
50	0x3d73a622	0.05948461
51	0x3d6e25ff	0.058141705
52	0x3ca12019	0.019668626
53	0x3d4db586	0.050221942
54	0x3d93eb96	0.07222669
55	0xbd21f252	-0.039537735
56	0x3ceb4e68	0.02872391
57	0x3ce21b05	0.027600775
58	0xbd2244aa	-0.039616264
59	0x3d0d0e4e	0.03443747
60	0xbd195739	-0.037436698
61	0xbcedc1b3	-0.029023027
62	0xbd3bb6a3	-0.045828473
63	0x3cbb2a5c	0.022847347
64	0xbd0265b4	-0.031835273
65	0x3a18a6ba	0.0005823184
66	0xbd86d13b	-0.06582876
67	0x3cb55f73	0.02214024
68	0xbd8797de	-0.06620763
69	0xbabc27d8	-0.0014355136
70	0x3d5eda28	0.05440727
71	0x3d8c6581	0.06855298
72	0x3d2fd3cc	0.042926595
73	0x3c982423	0.018571919
74	0x3d918ab3	0.07106533
75	0xbd1d3c05	-0.038387317
76	0xbcc87b49	-0.02447285
77	0x3d05fc64	0.0327114
78	0xbd73f4ea	-0.05955974
79	0x3bb3cf01	0.0054873233
80	0xbd062ab5	-0.032755572
81	0x3cce6a08	0.025197044
82	0x3d870e3f	0.06594514
83	0xbd2141da	-0.03936944
84	0x3d0f1547	0.0349324
85	0xbd1205c6	-0.035650037
86	0xbc044cc7	-0.008074946
87	0x3d71333d	0.058886755
88	0xbc910230	-0.017701238
89	0x3c748581	0.014924408
90	0x3d84309f	0.06454586
91	0xbd284f79	-0.041091416
92	0x3d5d3853	0.054008793
93	0xbd63103e	-0.05543541
94	0xbb69a3d2	-0.0035650623
95	0x3cbd25c0	0.02308929
96	0xbc8ff80f	-0.017574338
97	0xbb75eac7	-0.0037523971
98	0xbd16ad04	-0.036786094
99	0x3d3da6a6	0.046301506
100	0xbc82d148	-0.015968934
101	0xbd4686cd	-0.0484684
102	0xbd527c42	-0.051388033
103	0xbcfdc008	-0.030975357
104	0xbcadd19b	-0.021218112
105	0xbc8a2ba8	-0.01686652
106	0xbcaf9af7	-0.021436198
107	0xbb2b5081	-0.0026140513
108	0xbd571cdb	-0.052517753
109	0xbcff0cd5	-0.031134048
110	0x3bd082e6	0.0063632606
111	0xbd037f3a	-0.032103755
112	0x3cc03151	0.023461016
113	0xbaed2416	-0.001809242
114	0xbc42024d	-0.011841369
115	0x3d49cfd6	0.049270473
116	0xbd1fb0d4	-0.038986996
117	0xbd1e7e57	-0.038694706
118	0x3d904704	0.07044795
119	0x3cabc388	0.02096726
120	0xbcbd36b2	-0.02309737
121	0xbd80ef94	-0.06295696
122	0x3d2651f7	0.04060551
123	0xbd8e1503	-0.069376014
124	0xbd6ddb29	-0.058070336
125	0xbc562b3c	-0.013071831
126	0x3d88e3e6	0.06684093
127	0x3c157928	0.009123124
128	0xbd89fb93	-0.06737437
129	0xbd695aea	-0.056971468
130	0x3d6f1c13	0.058376383
131	0xbd28dd8c	-0.04122691
132	0xbcffcc61	-0.031225385
133	0xbd47f61a	-0.048818685
134	0xbcfcd63e	-0.030863877
135	0xbd83344a	-0.06406458
136	0x3d92ac0b	0.07161721
137	0x3d1cde85	0.03829815
138	0xbd5810a5	-0.05275025
139	0xbc2fea03	-0.010736945
140	0xbd661984	-0.056176677
141	0x3d5bc798	0.053657144
142	0x3d892c59	0.06697912
143	0xbd4a7608	-0.04942897
144	0x3d0c0fec	0.03419487
145	0xbcdae56c	-0.026720725
146	0xbd3b4729	-0.04572216
147	0x3c966b2a	0.018361647
148	0x3d0a1fc1	0.03372169
149	0xbd8bcd31	-0.068262465
150	0xbd76b8bf	-0.06023478
151	0x3d8f6f3e	0.0700364
152	0xbd9260fd	-0.07147405
153	0x3c24872f	0.010041996
154	0xbcbb93bc	-0.022897594
155	0x3d161158	0.036637634
156	0xbc0da2b3	-0.008644748
157	0x3cf3d398	0.029763982
158	0x3d558987	0.05213311
159	0xbb8ec6ac	-0.0043571796
160	0x3d8f0b28	0.0698455
161	0x3d251959	0.040307377
162	0x3cfed5d8	0.031107828
163	0x3d91b72b	0.07115015
164	0xbd2593de	-0.04042422
165	0x3d10dc18	0.035366148
166	0xbc5c8f8d	-0.01346196
167	0x3b6ee6fb	0.0036453593
168	0xbd609137	-0.054825988
169	0x3ce5fc91	0.028074535
170	0xbd1729c1	-0.036905054
171	0x3d8f60e7	0.070009045
172	0x3d4bbfbc	0.0497434
173	0xbd10583f	-0.035240408
174	0x3c888f18	0.016669795
175	0x3d480e06	0.0488415
176	0x3bf5d7e0	0.007502541
177	0xbd8c5339	-0.06851811
178	0x3c0ec364	0.008713577
179	0xbd5c7353	-0.05382092
180	0xba9ceb10	-0.001197191
181	0x3c03150b	0.0080006225
182	0xbc9d46b5	-0.019198755
183	0x3cf21834	0.029552557
184	0x3d93a60b	0.072094046
185	0x3cb85a8a	0.02250411
186	0xbd86a1de	-0.065738425
187	0xba99e6e6	-0.0011741787
188	0xbcf9cc1e	-0.030492838
189	0xbd77f362	-0.060534842
190	0xbccd08f6	-0.025028687
191	0x3c569d48	0.013099022
192	0x3d2ae3ca	0.041721143
193	0xbaff13e7	-0.0019460887
194	0x3d728f3d	0.059218634
195	0xbd01a7f7	-0.031654324
196	0x3d368993	0.044564795
197	0xbd326f5b	-0.043563228
198	0xbd8d6890	-0.06904709
199	0x3aa3dab2	0.0012501089
200	0x3cfee05a	0.031112839
201	0x3d1056f5	0.03523918
202	0x3b998bc2	0.00468585
203	0xbd505222	-0.050859578
204	0xbd14f3cb	-0.03636531
205	0x3d3b50af	0.045731243
206	0x3c0982d1	0.0083930055
207	0x3d861d05	0.06548504
208	0xbcd3dfc4	-0.025863536
209	0xbcde08ef	-0.02710387
210	0x3cb38481	0.021913769
211	0xbc8a2ca8	-0.016866997
212	0xbd0b3931	-0.03399009
213	0x3cf1e05d	0.02952593
214	0xbd2b6ac6	-0.041849874
215	0xbcbd1f9d	-0.023086363
216	0x3d4a9bff	0.049465176
217	0xbcee3c29	-0.029081421
218	0x3d837a63	0.06419828
219	0x3b1dd789	0.0024084768
220	0xba61f247	-0.0008619171
221	0xbd609c2d	-0.05483644
222	0x3c2330b0	0.0099603385
223	0x3d7a65b7	0.06113216
224	0x3d8c8aa3	0.0686238
225	0x3cfd9e1a	0.030959178
226	0x3c7e6587	0.015527136
227	0x3d932fff	0.07186889
228	0xbca46aec	-0.020070516
229	0xbc8b0237	-0.01696883
230	0xbd2d9886	-0.042381786
231	0x3d060157	0.03271612
232	0xbd4e724b	-0.050401967
233	0x3cc9c983	0.024632221
234	0x3d7a652a	0.061131634
235	0xbc9f9f22	-0.01948506
236	0x3b92726e	0.0044692075
237	0x3cebec2c	0.028799139
238	0x3c93af6f	0.01802799
239	0xbd8f63ec	-0.070014805
240	0xbd1ee826	-0.038795613
241	0x3d016f81	0.03160048
242	0x3d0ba7cc	0.03409557
243	0x3c20ba03	0.009809974
244	0xbc94353f	-0.018091796
245	0xbb533034	-0.0032224776
246	0x3d20b13e	0.03923153
247	0xbd7baed3	-0.061446022
248	0xbc271222	-0.010197194
249	0x3b948eaf	0.004533611
250	0xbd8bb971	-0.068224795
251	0x3d5934de	0.053028934
252	0x3d11868a	0.035528697
253	0x3b61c2c4	0.0034448365
254	0xbd24ecd2	-0.040264912
255	0x3c9c4186	0.019074213

dr1.bn.weight f4 [256]
0	0x3f801b48	1.0008326
1	0x3f80046c	1.000135
2	0x3f800886	1.0002601
3	0x3f7fc51a	0.9991013
4	0x3f7fe7bf	0.9996299
5	0x3f8001af	1.0000514
6	0x3f80075f	1.000225
7	0x3f801631	1.0006772
8	0x3f800309	1.0000926
9	0x3f8002c6	1.0000846
10	0x3f7fe076	0.99951875
11	0x3f800302	1.0000918
12	0x3f7fe7c9	0.9996305
13	0x3f7ff40a	0.9998175
14	0x3f801a80	1.0008087
15	0x3f7ff916	0.9998945
16	0x3f7fe67b	0.9996106
17	0x3f80040f	1.0001239
18	0x3f800d1a	1.0003998
19	0x3f8004cd	1.0001465
20	0x3f7ff5ea	0.9998461
21	0x3f801b4f	1.0008334
22	0x3f7fd299	0.9993072
23	0x3f7ff830	0.9998808
24	0x3f80030a	1.0000927
25	0x3f800e2b	1.0004324
26	0x3f7ffb8a	0.99993193
27	0x3f7ff94b	0.99989766
28	0x3f7fe7c9	0.9996305
29	0x3f7ff2dd	0.99979955
30	0x3f800d9a	1.0004151
31	0x3f800055	1.0000101
32	0x3f7fe28b	0.9995505
33	0x3f800363	1.0001034
34	0x3f7fff81	0.99999243
35	0x3f80044f	1.0001315
36	0x3f7fe8e3	0.9996473
37	0x3f8011a4	1.0005383
38	0x3f7ffd6e	0.9999608
39	0x3f8001fd	1.0000607
40	0x3f80083c	1.0002513
41	0x3f7ffa2e	0.9999112
42	0x3f8009e6	1.0003021
43	0x3f7fe725	0.99962074
44	0x3f7ff47e	0.9998244
45	0x3f7ff886	0.9998859
46	0x3f800c83	1.0003818
47	0x3f7fce5b	0.9992425
48	0x3f800466	1.0001342
49	0x3f7ffb60	0.9999294
50	0x3f7fe911	0.99965006
51	0x3f7ffe71	0.9999762
52	0x3f7fe8df	0.9996471
53	0x3f7feac1	0.9996758
54	0x3f7ff1dd	0.9997843
55	0x3f7ff4a8	0.9998269
56	0x3f7ffc44	0.999943
57	0x3f7fe127	0.9995293
58	0x3f800613	1.0001854
59	0x3f800c37	1.0003728
60	0x3f7fe62e	0.999606
61	0x3f80006c	1.0000129
62	0x3f7fd1a1	0.99929243
63	0x3f7ff731	0.9998656
64	0x3f800216	1.0000637
65	0x3f7feb4b	0.99968404
66	0x3f800dce	1.0004213
67	0x3f7fe782	0.9996263
68	0x3f800245	1.0000693
69	0x3f7ffa4f	0.99991316
70	0x3f7ffa8b	0.99991673
71	0x3f800b12	1.0003378
72	0x3f800752	1.0002234
73	0x3f7ff6cf	0.99985975
74	0x3f7fcaf5	0.9991906
75	0x3f7fe529	0.99959046
76	0x3f8015e8	1.0006685
77	0x3f7fff2f	0.99998754
78	0x3f7fe749	0.9996229
79	0x3f8003d0	1.0001163
80	0x3f7fe076	0.99951875
81	0x3f800276	1.0000751
82	0x3f7fdf44	0.9995005
83	0x3f800914	1.000277
84	0x3f7ff876	0.99988496
85	0x3f800d21	1.0004007
86	0x3f80085f	1.0002555
87	0x3f7ff316	0.99980295
88	0x3f7ffd61	0.99996
89	0x3f8002e1	1.0000879
90	0x3f7ff999	0.9999023
91	0x3f7ff1a2	0.9997808
92	0x3f801203	1.0005497
93	0x3f7fe0db	0.9995248
94	0x3f7fd4a1	0.9993382
95	0x3f7ff920	0.9998951
96	0x3f7fe7e4	0.9996321
97	0x3f7fd680	0.99936676
98	0x3f7fe823	0.9996359
99	0x3f8000a8	1.00002
100	0x3f8009cc	1.000299
101	0x3f7fde2b	0.99948376
102	0x3f8002e7	1.0000886
103	0x3f7ff954	0.9998982
104	0x3f7fec3f	0.9996986
105	0x3f7fce35	0.9992402
106	0x3f7fdf8b	0.99950475
107	0x3f7fe1f9	0.9995418
108	0x3f7ff629	0.99984986
109	0x3f7fe221	0.9995442
110	0x3f800dbf	1.0004195
111	0x3f800077	1.0000142
112	0x3f7fe442	0.9995767
113	0x3f8008e2	1.0002711
114	0x3f800c79	1.0003806
115	0x3f7fee4a	0.99972975
116	0x3f8003b9	1.0001136
117	0x3f800b2c	1.0003409
118	0x3f7ffe68	0.9999757
119	0x3f8001ce	1.0000551
120	0x3f800042	1.0000079
121	0x3f7fccfd	0.9992216
122	0x3f7fd52c	0.9993465
123	0x3f7ff9da	0.9999062
124	0x3f801f35	1.0009524
125	0x3f7ff46d	0.9998234
126	0x3f7fdbf9	0.99945027
127	0x3f7ffbe0	0.99993706
128	0x3f7fe1e2	0.99954045
129	0x3f7ffb24	0.99992585
130	0x3f7fed9f	0.99971956
131	0x3f7fed87	0.9997181
132	0x3f7fec2f	0.9996976
133	0x3f800944	1.0002828
134	0x3f8003df	1.0001181
135	0x3f7ff078	0.999763
136	0x3f800695	1.0002009
137	0x3f7ff3bd	0.9998129
138	0x3f7fea3b	0.9996678
139	0x3f8004c6	1.0001457
140	0x3f8010a4	1.0005078
141	0x3f7ff231	0.9997893
142	0x3f801085	1.0005041
143	0x3f8013d7	1.0006055
144	0x3f7fc90a	0.99916136
145	0x3f7ff5a5	0.999842
146	0x3f7ffe22	0.9999715
147	0x3f800fb3	1.0004791
148	0x3f7ffed5	0.9999822
149	0x3f7ff8ab	0.9998881
150	0x3f7ffd04	0.99995446
151	0x3f7fe6f2	0.9996177
152	0x3f800258	1.0000715
153	0x3f8002c5	1.0000845
154	0x3f7fe653	0.9996082
155	0x3f800abf	1.000328
156	0x3f8001ed	1.0000588
157	0x3f7fe9bc	0.99966025
158	0x3f7ff227	0.9997887
159	0x3f801c79	1.0008689
160	0x3f7fe2f9	0.9995571
161	0x3f7fde47	0.99948543
162	0x3f7ff0be	0.9997672
163	0x3f7fe1ee	0.99954116
164	0x3f8004ac	1.0001426
165	0x3f7ffc0e	0.9999398
166	0x3f7fd3b7	0.99932426
167	0x3f7ff253	0.9997913
168	0x3f7ff3f2	0.99981606
169	0x3f7fe2a6	0.99955213
170	0x3f7fe6e0	0.9996166
171	0x3f8013f3	1.0006088
172	0x3f7ffeb9	0.9999805
173	0x3f7fdaa8	0.9994302
174	0x3f800386	1.0001075
175	0x3f7ffd9f	0.9999637
176	0x3f8007bf	1.0002364
177	0x3f800603	1.0001835
178	0x3f7fe551	0.99959284
179	0x3f8013fd	1.00061
180	0x3f7feacd	0.9996765
181	0x3f7fe6f3	0.99961776
182	0x3f8003f2	1.0001204
183	0x3f7fe5ce	0.9996003
184	0x3f800936	1.0002811
185	0x3f7feb7c	0.99968696
186	0x3f800d0f	1.0003985
187	0x3f800940	1.0002823
188	0x3f800d3a	1.0004036
189	0x3f7fd799	0.9993835
190	0x3f7ffbe5	0.99993736
191	0x3f7ff508	0.99983263
192	0x3f80011b	1.0000337
193	0x3f7fef8c	0.99974895
194	0x3f7ff69e	0.9998568
195	0x3f80036c	1.0001044
196	0x3f800769	1.0002261
197	0x3f7feeae	0.9997357
198	0x3f7fd278	0.99930525
199	0x3f7ffd99	0.99996334
200	0x3f7fd9f5	0.9994195
201	0x3f80024a	1.0000699
202	0x3f7ff922	0.9998952
203	0x3f800a58	1.0003157
204	0x3f801099	1.0005065
205	0x3f7ff373	0.9998085
206	0x3f80048f	1.0001391
207	0x3f80091a	1.0002778
208	0x3f800d31	1.0004026
209	0x3f7fef28	0.999743
210	0x3f7ff9f8	0.999908
211	0x3f7ff7af	0.9998731
212	0x3f7fd7b8	0.99938536
213	0x3f7ff735	0.99986583
214	0x3f7fd9d3	0.9994175
215	0x3f7fe5d5	0.9996007
216	0x3f8018db	1.0007585
217	0x3f7ffbf5	0.9999383
218	0x3f7fe99b	0.9996583
219	0x3f80064d	1.0001923
220	0x3f801272	1.0005629
221	0x3f800b0e	1.0003374
222	0x3f7fe55a	0.9995934
223	0x3f800752	1.0002234
224	0x3f7fff90	0.9999933
225	0x3f7fee05	0.99972564
226	0x3f800f26	1.0004623
227	0x3f7ff9b1	0.99990374
228	0x3f800a48	1.0003138
229	0x3f8005ce	1.0001771
230	0x3f800799	1.0002319
231	0x3f800384	1.0001073
232	0x3f800280	1.0000763
233	0x3f7ff6a7	0.99985737
234	0x3f80125f	1.0005606
235	0x3f8009b9	1.0002967
236	0x3f7fd95f	0.99941057
237	0x3f7fd96f	0.9994115
238	0x3f800681	1.0001985
239	0x3f80051e	1.0001562
240	0x3f7ff904	0.9998934
241	0x3f8001a6	1.0000503
242	0x3f80043c	1.0001292
243	0x3f8008cb	1.0002683
244	0x3f7ff6d1	0.99985987
245	0x3f7ff483	0.9998247
246	0x3f80076c	1.0002265
247	0x3f80025b	1.0000719
248	0x3f800811	1.0002462
249	0x3f7fe828	0.9996362
250	0x3f7ffacd	0.99992067
251	0x3f8007bd	1.0002362
252	0x3f800284	1.0000768
253	0x3f7ffa3e	0.99991214
254	0x3f7fc582	0.9991075
255	0x3f7fd622	0.99936116

dr1.bn.bias f4 [256]
0	0x3908fa4a	0.0001306321
1	0xb9288c06	-0.00016073891
2	0x39a207fb	0.00030904994
3	0xba069263	-0.00051335077
4	0xb99728ae	-0.00028831273
5	0xb81650a0	-3.5837875e-05
6	0x39a3e2fe	0.00031258905
7	0x3a3c41dd	0.0007181445
8	0x389d5de3	7.503831e-05
9	0xb8ab6cc8	-8.1741775e-05
10	0xb9b17815	-0.0003384954
11	0x38f26ebf	0.00011560087
12	0xb9c760eb	-0.00038028447
13	0xb7ae474d	-2.0775618e-05
14	0x3a51779a	0.00079905393
15	0x399906a8	0.00029187393
16	0xb96d5a73	-0.00022635776
17	0x39901fdf	0.00027489566
18	0x39b15a57	0.0003382738
19	0x395b4fa7	0.0002091514
20	0x3892d662	7.0017544e-05
21	0x3a579d3a	0.00082250277
22	0xba11891f	-0.00055517437
23	0x398b572c	0.00026577094
24	0x38c45a64	9.362845e-05
25	0x39626a58	0.00021592656
26	0xb85763a2	-5.1352785e-05
27	0xb966bcc4	-0.0002200483
28	0xb9ca05d8	-0.00038532796
29	0x389b861f	7.415958e-05
30	0x399e35a0	0.00030176062
31	0xb943c61e	-0.00018670454
32	0xb69ba166	-4.638149e-06
33	0x39c28943	0.0003710483
34	0xb9238b32	-0.00015596746
35	0x3960bce9	0.00021432679
36	0xb9933db0	-0.00028083986
37	0x39b2bbb8	0.00034090667
38	0x388d3454	6.733151e-05
39	0x3942f5dd	0.00018592873
40	0xb8c89698	-9.5647934e-05
41	0xb95ca61f	-0.0002104272
42	0x387d3a79	6.0374357e-05
43	0xb9ba4a83	-0.000355322
44	0x395b9a3a	0.00020942921
45	0x372d9b10	1.0347707e-05
46	0x3a2f824d	0.00066951365
47	0xba3538ff	-0.0006913095
48	0xb8067515	-3.205713e-05
49	0x390b0070	0.00013256236
50	0xb9b554f6	-0.0003458631
51	0xb7b465bb	-2.1505044e-05
52	0xb8fef582	-0.00012157393
53	0xb9dd7358	-0.00042238343
54	0x39b254f1	0.00034014092
55	0xb906ce00	-0.00012855977
56	0xb9efc709	-0.00045733925
57	0xb8caa61a	-9.6630494e-05
58	0x3905eff0	0.00012773252
59	0x39817b18	0.0002469651
60	0x394b3cc4	0.00019382226
61	0xb8fe8192	-0.00012135798
62	0xb9ebc7e1	-0.00044971614
63	0x394dda1f	0.0001963158
64	0x392934e7	0.00016136804
65	0xb9be8b7a	-0.00036343542
66	0x3a1b7e45	0.00059315964
67	0xb9e71f1a	-0.00044082926
68	0xb8f2a0c1	-0.00011569402
69	0x36e8a4a9	6.9333078e-06
70	0xb8d98336	-0.00010371806
71	0x396beace	0.00022498818
72	0x356da911	8.8535404e-07
73	0x39efacae	0.0004571429
74	0xba62f683	-0.0008657949
75	0xba134386	-0.0005617667
76	0x3a4418e8	0.0007480518
77	0xb5aad208	-1.2727114e-06
78	0xb9b79c2e	-0.00035020843
79	0xb9fcf57f	-0.00048248094
80	0xb921cb86	-0.00015429975
81	0xb9b24647	-0.00034003166
82	0x38d4ad08	0.00010141177
83	0x3a1a8ad8	0.0005895323
84	0xb952a5f1	-0.00020088979
85	0x3a0a1591	0.0005267496
86	0xb99210d1	-0.0002785982
87	0x388d8b03	6.749297e-05
88	0x395d4c7d	0.00021104696
89	0x381ebd70	3.7846563e-05
90	0xb913c130	-0.0001409098
91	0x39b60726	0.0003471907
92	0x397f0d67	0.00024323688
93	0xba4c0a6c	-0.00077835354
94	0xb9fc8906	-0.00048167276
95	0xb8438791	-4.661788e-05
96	0xb9d52c58	-0.00040659565
97	0xb9d703d2	-0.00041010842
98	0x39ce8a35	0.00039394354
99	0xb9b283bb	-0.00034048953
100	0x39eb916b	0.00044931038
101	0x37a1fb8b	1.930983e-05
102	0xb9b0ec9c	-0.00033745624
103	0xba0e00eb	-0.0005417007
104	0x38f4b268	0.000116680574
105	0xb99931ac	-0.00029219443
106	0xb990d950	-0.0002762773
107	0xba24567c	-0.00062689907
108	0xb8906635	-6.8854926e-05
109	0xb79bd04a	-1.8574432e-05
110	0x380ce13d	3.358837e-05
111	0x393cd465	0.000180082
112	0xb96639b9	-0.00021956013
113	0x39902991	0.0002749679
114	0x399142b6	0.0002770626
115	0xb7318981	-1.0582037e-05
116	0xb9acacc9	-0.00032935131
117	0x3a55f2fa	0.00081615115
118	0xb93eb02f	-0.00018185446
119	0xb94f4aee	-0.00019768972
120	0xb90c3b82	-0.00013373609
121	0xb9fe54d3	-0.00048509854
122	0xba5b5653	-0.00083670503
123	0xb982d344	-0.00024952937
124	0x3a808a8c	0.0009806915
125	0xb962c21c	-0.00021625351
126	0xb8c68dcc	-9.4677875e-05
127	0x39b04cac	0.0003362646
128	0xb9a6cc0a	-0.00031814008
129	0xb990f61c	-0.00027649186
130	0xb8dad366	-0.00010434426
131	0xb9ee150e	-0.00045410584
132	0xb8928a79	-6.987615e-05
133	0x39da9650	0.00041692192
134	0xb8f2142a	-0.00011543215
135	0xb9051d29	-0.00012694731
136	0xb8699938	-5.5694225e-05
137	0xb97a552a	-0.00023873584
138	0xba033655	-0.00050053495
139	0xb8b3d82c	-8.57565e-05
140	0x3981e503	0.00024775424
141	0xb9b30bc7	-0.00034150315
142	0xb937bdc1	-0.00017522929
143	0x3a2c49d3	0.000657228
144	0xba7201d2	-0.00092318386
145	0x394c25da	0.00019469057
146	0xb8efd5d0	-0.00011436234
147	0x39b96502	0.00035361206
148	0x38f5bfa4	0.00011718206
149	0xb88ff4cf	-6.8643705e-05
150	0x375f6d42	1.3317274e-05
151	0xb998f3fe	-0.00029173488
152	0xb844bc56	-4.6905443e-05
153	0xb9baf68b	-0.00035660373
154	0xba1e32e9	-0.0006034808
155	0x3a074b3d	0.00051610527
156	0x38dcc8d3	0.00010527824
157	0xb9110b8b	-0.00013832578
158	0xb99dbd97	-0.0003008663
159	0x39ae8dab	0.00033293417
160	0xb8ae033d	-8.29757e-05
161	0xb6faa14c	-7.469358e-06
162	0xb9fdeb75	-0.0004843135
163	0xb8acc673	-8.238563e-05
164	0x382802b5	4.0056842e-05
165	0x35868d3e	1.0024885e-06
166	0xb9569ec2	-0.00020467772
167	0x395112a9	0.00019938745
168	0xb85996f5	-5.187742e-05
169	0xb93f95f7	-0.00018271046
170	0xb8890cd7	-6.535061e-05
171	0x394ba18e	0.00019419772
172	0x3949aa37	0.00019232264
173	0xba23b100	-0.00062443316
174	0x39a86ea9	0.00032125905
175	0xb5fe23f9	-1.8934944e-06
176	0x38f1931b	0.00011519176
177	0xb8a4835b	-7.844596e-05
178	0x37a555df	1.970952e-05
179	0x3956dee4	0.00020491664
180	0xb984aba9	-0.000253049
181	0xb8f3fd4e	-0.000116343246
182	0x39a2c057	0.00031042352
183	0x3999c794	0.0002933113
184	0x39b4b49a	0.00034466834
185	0xb977e555	-0.00023641188
186	0x3a0f2a73	0.00054613425
187	0xb8c19b0d	-9.2318376e-05
188	0x3a211e7e	0.0006146206
189	0xba104291	-0.0005503083
190	0x39ae65da	0.00033263752
191	0xb99066e2	-0.00027542474
192	0x37c84a2a	2.3876393e-05
193	0xb90ab1a7	-0.00013226886
194	0xb9d2a77f	-0.00040179116
195	0x382ec36e	4.166684e-05
196	0xb9446815	-0.0001873079
197	0xb93b10cc	-0.00017839967
198	0xba2ee43a	-0.00066715817
199	0x398b95a3	0.00026623634
200	0xba284d58	-0.00064202165
201	0x38a1d925	7.7175246e-05
202	0x399c583e	0.00029820384
203	0xb7a5a76e	-1.9747498e-05
204	0x398946f6	0.00026183546
205	0xb87c8c5a	-6.0212195e-05
206	0xb909d6e6	-0.00013145394
207	0xb95a77c7	-0.0002083472
208	0x399ec385	0.00030281782
209	0xb9af9f69	-0.0003349737
210	0xb9b8a2ba	-0.00035216456
211	0x394f019b	0.00019741656
212	0xb9ce5663	-0.00039355745
213	0xb94cb60d	-0.00019522775
214	0xba4a05a4	-0.0007706529
215	0xb99cedb8	-0.00029931753
216	0x3a059ecd	0.00050972105
217	0xb8eb3fa8	-0.0001121753
218	0xba1bff7a	-0.000595085
219	0x3968e39c	0.00022210035
220	0x3993467c	0.0002809054
221	0xb9b3681d	-0.0003421911
222	0xb9623719	-0.00021573565
223	0x38b197e8	8.4683124e-05
224	0x399295d8	0.00027958932
225	0xb98f53c5	-0.000273375
226	0x38df31cb	0.00010642743
227	0xb9e8d9ca	-0.00044412754
228	0x38820d14	6.201319e-05
229	0x3a047b7f	0.0005053803
230	0x391c4d21	0.00014906052
231	0x39479e3f	0.0001903707
232	0xb9ebc3c2	-0.00044968544
233	0x38a1bcc7	7.712241e-05
234	0x391309f9	0.00014022728
235	0x39850154	0.00025368726
236	0xb9acddf0	-0.00032971753
237	0xb99c2133	-0.00029779374
238	0x37f21a5b	2.886092e-05
239	0x396556a8	0.00021871424
240	0xb8fa6d2a	-0.00011941262
241	0x383eab0d	4.5458833e-05
242	0x38c055b9	9.1712405e-05
243	0x38c03248	9.164639e-05
244	0xb92afcff	-0.00016306712
245	0x39a1a12c	0.00030828395
246	0xb915553d	-0.00014241501
247	0xb9173cf8	-0.00014423195
248	0x38445549	4.680947e-05
249	0xb98ce0ad	-0.00026870277
250	0xb9bb4ac4	-0.00035723124
251	0x39773200	0.00023574382
252	0xb80528da	-3.1747717e-05
253	0xb9038d0a	-0.00012545675
254	0xba6a80ef	-0.0008945604
255	0xb9c41f94	-0.0003740756

dr1.bn.running_mean f4 [256]
0	0xbda61d0b	-0.08111008
1	0x3da36656	0.079785034
2	0xbd21e321	-0.039523248
3	0xbac7f3e8	-0.0015255185
4	0xbd1acf4e	-0.037795357
5	0x3d38583c	0.04500602
6	0x3d82ee70	0.063931346
7	0x3c26e600	0.010186672
8	0xbd63aaba	-0.05558274
9	0x3da05de5	0.07830409
10	0x3ce023d3	0.027360832
11	0x3ba6b63b	0.0050876415
12	0xbd4bcf01	-0.04975796
13	0x3caee08a	0.021347303
14	0x3cdf9066	0.027290534
15	0xbba7c9bf	-0.0051204856
16	0xbd12bfcc	-0.035827443
17	0x3c42dabb	0.01189297
18	0x3d480bb8	0.0488393
19	0xbdb77d5a	-0.08959456
20	0xbc45e0a0	-0.012077481
21	0x3d1b5ecb	0.0379322
22	0xba93bb00	-0.001127094
23	0xbcb55089	-0.022133129
24	0x3cf076a1	0.029353442
25	0xbcf5dac1	-0.030011537
26	0x3d447912	0.047967024
27	0xbcb9e620	-0.02269274
28	0xbd2cb029	-0.042160187
29	0x3df9230b	0.12164887
30	0x3d1dade8	0.038495928
31	0x3de3a918	0.111162364
32	0x3de47b68	0.111563504
33	0x3d923fd7	0.07141083
34	0x3c9a002f	0.018798916
35	0xbdc0536e	-0.09390913
36	0xbdd5afd0	-0.10433924
37	0xbcb3cab8	-0.02194725
38	0xbd25c26b	-0.040468615
39	0xbd56e98f	-0.052468833
40	0xbcbcc530	-0.023043245
41	0xbcdf8f69	-0.027290063
42	0xbd809ffd	-0.06280515
43	0xbbe86b46	-0.007092866
44	0xbbffcc9a	-0.007806373
45	0x3d2782aa	0.040896095
46	0xbde693b9	-0.112586446
47	0xbd495326	-0.049151562
48	0xbd1c7b5b	-0.03820358
49	0xbcddaa56	-0.027058762
50	0x3d178089	0.036987815
51	0x3db87730	0.09007108
52	0xbc1b1111	-0.009464518
53	0x3d088c82	0.033337124
54	0x3dc91bc4	0.09819749
55	0xbd44ec89	-0.04807714
56	0x3d33776a	0.043815054
57	0x3cbb5f2b	0.022872528
58	0xbc9084a2	-0.01764137
59	0x3bef09b7	0.0072948593
60	0xbe026202	-0.127327
61	0xbccdb04a	-0.025108475
62	0xbd3d4aa1	-0.04621375
63	0x3d1320e5	0.035920043
64	0xbdddd160	-0.10830951
65	0x3bdbef9c	0.0067119133
66	0xbdab03c7	-0.0835033
67	0x3c7bbae0	0.015364379
68	0xbc7379a9	-0.014860549
69	0x3c9a1742	0.018809918
70	0x3d94cdd0	0.07265818
71	0x3d964d2a	0.073389366
72	0xbbda855e	-0.0066687306
73	0x3d96ccc3	0.07363274
74	0x3d9588fe	0.0730152
75	0xbdc1e552	-0.094675675
76	0x3d290ba2	0.04127086
77	0x3dcf1b0a	0.10112579
78	0xbd9f4f5f	-0.07778811
79	0x3a98a838	0.0011646813
80	0xbda20a10	-0.079120755
81	0x3d087c50	0.03332168
82	0x3c6b3148	0.014355011
83	0xbcf613d0	-0.030038744
84	0x3d99133f	0.07474374
85	0xbc0b1fe6	-0.008491492
86	0x3c340722	0.010988029
87	0x3dee9d2f	0.11651074
88	0x3bd225d4	0.006413201
89	0xbd26e448	-0.04074505
90	0x3d750413	0.05981834
91	0xbd38f038	-0.045150965
92	0x3d3d5a3f	0.046228644
93	0xbd38f11b	-0.04515181
94	0x3c404c30	0.0117369145
95	0x3d3048d1	0.043038193
96	0xbd01ea99	-0.03171787
97	0xbc4ceab3	-0.0125071285
98	0x3bb44003	0.005500795
99	0x3ca2af1c	0.01985889
100	0xbc4af75b	-0.012388076
101	0xbcda588d	-0.026653552
102	0xbd244e0c	-0.040113494
103	0xbd25fa6f	-0.040522035
104	0xbd024df8	-0.031812638
105	0xbc608b75	-0.013705124
106	0x3b169925	0.0022979465
107	0xbc3291bb	-0.010899003
108	0x3c5cadf1	0.013469205
109	0xbae4f9b0	-0.0017469432
110	0x3a6cf1f0	0.0009038737
111	0xbd24e0be	-0.040253393
112	0x3d9c0b14	0.076193005
113	0xbd35af0c	-0.04435639
114	0xbd009585	-0.031392593
115	0x3d2c0b96	0.042003237
116	0xbd4d5436	-0.050129138
117	0xbc9c9d05	-0.019117841
118	0x3db4823b	0.08813902
119	0x3d8fe057	0.07025211
120	0xbd32641c	-0.043552503
121	0xbe09aca7	-0.13444768
122	0xb9957de8	-0.00028513302
123	0xbdd88fff	-0.1057434
124	0xbcbede7b	-0.023299446
125	0xbcc895a0	-0.02448541
126	0x3d76e918	0.06028089
127	0x3d7d1725	0.06178965
128	0xbd450895	-0.048103888
129	0xbd9567a4	-0.072951585
130	0xbb65c61c	-0.003506071
131	0xbd9f4664	-0.07777098
132	0xbd2f50c0	-0.04280162
133	0xbc3fd8c2	-0.011709394
134	0xbc7c8f3c	-0.015415009
135	0xbda76fce	-0.08175622
136	0x3d966648	0.07343727
137	0x3d876f87	0.06613069
138	0xbc159b85	-0.009131317
139	0xbd0f9ebe	-0.035063498
140	0xbc970bd6	-0.018438261
141	0x3d889915	0.06669823
142	0x3da80f19	0.08206005
143	0xbd7c3b87	-0.061580207
144	0x3d98533d	0.074377514
145	0xbd420440	-0.047367334
146	0xbd05ebce	-0.032695584
147	0x3b917671	0.004439168
148	0x3d892c29	0.06697876
149	0xbdc9e19f	-0.09857487
150	0xbd782879	-0.060585473
151	0x3dde8942	0.108660236
152	0xbdd9d0ce	-0.106355295
153	0x3b875a68	0.0041306503
154	0xbcf30b4c	-0.029668473
155	0xbd0a80d0	-0.03381425
156	0xbd14966f	-0.036276277
157	0xbc8f2a96	-0.017476361
158	0x3b951ee4	0.0045508016
159	0x3c64cb8e	0.013964547
160	0x3c4170c2	0.011806669
161	0x3dd3b623	0.10337474
162	0x3cd35034	0.02579508
163	0x3da3aa27	0.07991438
164	0xbc2ebb7d	-0.010664818
165	0x3d55bfc6	0.052184843
166	0x3ca940ba	0.020660747
167	0xbc853280	-0.016259432
168	0xbda3b7d4	-0.07994047
169	0x3ce4a55d	0.027910883
170	0xbcbc5052	-0.022987518
171	0x3db141d5	0.086551346
172	0x3d90034f	0.07031881
173	0xbd2c596c	-0.042077467
174	0x3d1b1983	0.037866127
175	0x3d815995	0.063159145
176	0x3d3e9a65	0.04653396
177	0xbda84cad	-0.0821775
178	0x3d24b7d0	0.04021436
179	0xbd305b9d	-0.04305612
180	0x3c7eb16b	0.015545229
181	0xbb1228ae	-0.002230208
182	0x3c35068e	0.011048926
183	0x3d624eb8	0.055250853
184	0x3db2fa31	0.087391265
185	0x3d58ae37	0.05290052
186	0xbe05511a	-0.13019219
187	0xbd5d22ad	-0.053988148
188	0xbdf158eb	-0.11784538
189	0xbd8ddc86	-0.06926827
190	0xbdabe1e9	-0.08392698
191	0x3cb6bea8	0.022307709
192	0x3d2c3563	0.0420431
193	0xbd3c0e9a	-0.045912363
194	0x3da8442c	0.08216128
195	0xbda6f6d3	-0.08152547
196	0x3d56925d	0.052385677
197	0x3ade260a	0.0016948592
198	0xbdad9ff5	-0.08477775
199	0x3c86074c	0.016360901
200	0x3ccb0f84	0.024787672
201	0x3d2d6cf1	0.042340223
202	0x3d25649b	0.040379148
203	0xbda8d0f9	-0.08242983
204	0xbd92f7f5	-0.071762
205	0x3d501798	0.05080375
206	0x3d80bbaa	0.06285794
207	0x3cea0bb2	0.02857003
208	0x3d0e3b18	0.034724325
209	0xbd0b8921	-0.034066323
210	0x3d07e222	0.03317464
211	0xbd0f4f3e	-0.03498768
212	0xbd0bacf0	-0.034100473
213	0x3d4d5ff6	0.050140344
214	0xbd914f47	-0.07095199
215	0x3c9db324	0.01925046
216	0x3d9ad738	0.07560581
217	0xbd1b6507	-0.037938144
218	0x3da4d800	0.08049011
219	0x3d0638ff	0.0327692
220	0x3ccf1db2	0.025282715
221	0xbd284f6b	-0.041091364
222	0x3b040768	0.0020146016
223	0x3d91d437	0.07120555
224	0x3d6da990	0.058023036
225	0x3ce2845a	0.027651
226	0xbd0178f2	-0.031609483
227	0x3de6bdf0	0.112666965
228	0xbc31f818	-0.010862373
229	0xbd12f1da	-0.03587518
230	0xbdbcf183	-0.09225752
231	0xbb1fa306	-0.0024358644
232	0xbd4435d5	-0.0479029
233	0x3ccbe0a4	0.02488739
234	0x3df5b5f9	0.11997599
235	0xbc15aee8	-0.009135939
236	0xba0970ac	-0.00052429247
237	0x3d0f3423	0.03496183
238	0x3b269140	0.0025416166
239	0xbd947fb3	-0.07250919
240	0xbd870bd6	-0.065940544
241	0x3db0d0b2	0.086335555
242	0x3d990481	0.07471562
243	0xbce4d580	-0.027933836
244	0xbd6ac9ed	-0.057321478
245	0xbd295a10	-0.041345656
246	0xbb8c03c8	-0.0042729117
247	0xbd7307d7	-0.05933365
248	0x3cacbd50	0.021086365
249	0xbc30eee3	-0.0107991425
250	0xbd496dd4	-0.049177006
251	0x3d84f054	0.064911515
252	0x3d3846c8	0.044989377
253	0xbd4a9c12	-0.049465246
254	0xbd6b493e	-0.057442896
255	0x3c6c78a3	0.014433059

dr1.bn.running_var f4 [256]
0	0x3ea72059	0.32641867
1	0x3ed832e3	0.42226323
2	0x3eda2973	0.42609748
3	0x3e9f7592	0.31144387
4	0x3ee1b606	0.44084185
5	0x3ed94748	0.42437196
6	0x3ecbbfda	0.3979481
7	0x3ebd0936	0.3692109
8	0x3eccf372	0.40029484
9	0x3ebb2a3e	0.36555666
10	0x3eb84d89	0.35996655
11	0x3e9d846c	0.30765092
12	0x3ec2cb97	0.38045952
13	0x3e99c112	0.30030113
14	0x3ed03650	0.40666437
15	0x3ea22b61	0.3167372
16	0x3ebd1925	0.36933246
17	0x3ebc4c3b	0.3677691
18	0x3ec4d6ca	0.3844512
19	0x3ee03dfb	0.43797287
20	0x3ecb1a73	0.39668617
21	0x3eb20525	0.3476955
22	0x3eb4be34	0.35301363
23	0x3eb2ceb0	0.34923315
24	0x3ebfe162	0.3747664
25	0x3eb5101d	0.35363856
26	0x3ec07d3e	0.37595552
27	0x3eb3d95a	0.35126764
28	0x3ecc86ad	0.399465
29	0x3ebf7865	0.3739654
30	0x3ed69baa	0.41915637
31	0x3ec0a758	0.37627673
32	0x3ec9ddf1	0.3942714
33	0x3ec93935	0.39301458
34	0x3eb3e838	0.35138106
35	0x3ec8bf68	0.3920853
36	0x3ebaadd6	0.3646075
37	0x3ee2f602	0.44328314
38	0x3ead639a	0.33865052
39	0x3ebdbdac	0.3705877
40	0x3eab827a	0.33497983
41	0x3eec6fc6	0.46179026
42	0x3ece9760	0.40349865
43	0x3ec01f2b	0.3752378
44	0x3e9cf1fd	0.30653372
45	0x3eb4f435	0.35342565
46	0x3ec15064	0.37756646
47	0x3ec35ec0	0.38158226
48	0x3ebe2d6e	0.37144035
49	0x3ec47759	0.38372305
50	0x3ec5837e	0.38576883
51	0x3ec03d8a	0.3754695
52	0x3ea4ca4b	0.32185587
53	0x3ea3fed8	0.32030368
54	0x3ec69a08	0.38789392
55	0x3eaee315	0.34157625
56	0x3ec587c2	0.38580137
57	0x3eb274d3	0.34854755
58	0x3eb88534	0.36039126
59	0x3ec25185	0.3795282
60	0x3ec991fe	0.39369196
61	0x3ece2231	0.4026046
62	0x3eb84a73	0.359943
63	0x3eb39f8e	0.35082668
64	0x3eb7d5b4	0.3590523
65	0x3eb8a184	0.36060727
66	0x3ec099d6	0.37617368
67	0x3ec81029	0.3907483
68	0x3ec71300	0.38881683
69	0x3eaf7416	0.34268254
70	0x3ec35166	0.3814804
71	0x3eb2cde7	0.34922716
72	0x3eb098a6	0.34491462
73	0x3eb32bac	0.34994256
74	0x3ebdfd5f	0.3710737
75	0x3ea49f2a	0.32152683
76	0x3ee80c26	0.4532177
77	0x3ebce40b	0.36892733
78	0x3ebb2ca3	0.36557493
79	0x3ead8f06	0.3389818
80	0x3eb1617a	0.3464468
81	0x3ebac8c4	0.36481297
82	0x3ea9e74c	0.33184278
83	0x3eb5bfbb	0.3549784
84	0x3eb9932a	0.3624509
85	0x3ebbfe02	0.3671723
86	0x3ee12b34	0.43978274
87	0x3ebbd51f	0.36686036
88	0x3ec9b256	0.39393872
89	0x3eda5f92	0.4265104
90	0x3ea828f0	0.32843733
91	0x3ec612f8	0.38686347
92	0x3ec8ac42	0.39193922
93	0x3ec56ad8	0.38558078
94	0x3e9dc309	0.30812863
95	0x3ec11619	0.37712172
96	0x3ead34af	0.33829257
97	0x3eb8a1d0	0.36060953
98	0x3eb6caa9	0.35701492
99	0x3eae7466	0.3407318
100	0x3eb8e5ce	0.36112827
101	0x3eceb9d1	0.40376142
102	0x3ebcf12a	0.36902744
103	0x3ea9bf90	0.33153963
104	0x3ebd2949	0.3694556
105	0x3ec39da4	0.38206208
106	0x3eae5fda	0.34057504
107	0x3ea7703f	0.32702824
108	0x3ea51570	0.32242918
109	0x3ec1a4eb	0.37821135
110	0x3eb7a5dd	0.3586873
111	0x3ecddd98	0.40208125
112	0x3ebc9555	0.3683268
113	0x3ed089ab	0.40730032
114	0x3ec74fbe	0.38928026
115	0x3eb7c51d	0.35892573
116	0x3ebdd236	0.3707444
117	0x3eb6ab84	0.3567773
118	0x3e9f44cf	0.31107184
119	0x3ec29c2b	0.38009772
120	0x3eb477d1	0.35247663
121	0x3ec1d249	0.37855747
122	0x3eb29985	0.3488275
123	0x3edf1abe	0.4357509
124	0x3ead931d	0.339013
125	0x3ea2b262	0.3177672
126	0x3eb99078	0.36243033
127	0x3eae614c	0.34058607
128	0x3ead540f	0.33853194
129	0x3eb5a60b	0.35478243
130	0x3ebd7847	0.37005827
131	0x3eb1b119	0.34705427
132	0x3ec12fae	0.3773169
133	0x3ecbd614	0.39811766
134	0x3e9eb12c	0.30994546
135	0x3ea676f5	0.32512632
136	0x3ec1d7d1	0.37859967
137	0x3eb6dced	0.35715428
138	0x3eb88ff6	0.36047333
139	0x3eb3d118	0.35120463
140	0x3eb76e62	0.35826403
141	0x3ea302c0	0.31838036
142	0x3ebd126e	0.36928123
143	0x3eb4162a	0.3517316
144	0x3eb67d1e	0.35642332
145	0x3ebc13cc	0.36733854
146	0x3ecc2457	0.39871475
147	0x3edca459	0.43094137
148	0x3eb961ea	0.36207515
149	0x3ed838d8	0.42230868
150	0x3eae1dd3	0.3400713
151	0x3eba80bc	0.36426342
152	0x3eed31eb	0.46327147
153	0x3eb93c7a	0.36178952
154	0x3eb90b3a	0.36141378
155	0x3ebe2311	0.3713613
156	0x3eca4f41	0.3951359
157	0x3eabf526	0.3358547
158	0x3ec61c1e	0.38693327
159	0x3eb7ac39	0.35873583
160	0x3ec7404c	0.38916242
161	0x3ed55882	0.4166909
162	0x3ed7ad9a	0.42124635
163	0x3eba76aa	0.36418658
164	0x3ed49bda	0.41525155
165	0x3ea4c2b2	0.3217979
166	0x3ea93d8d	0.33054772
167	0x3ea844cf	0.32864997
168	0x3eac4678	0.33647513
169	0x3eb6b29f	0.35683152
170	0x3ee738e4	0.45160592
171	0x3ed5147d	0.41617194
172	0x3ec137d6	0.37737912
173	0x3eb36576	0.35038346
174	0x3ece22c1	0.4026089
175	0x3eb2152b	0.34781775
176	0x3eaaf5ba	0.333906
177	0x3eb1c2d0	0.34718943
178	0x3ebaf499	0.36514738
179	0x3ec5a39a	0.3860138
180	0x3ebe2acc	0.37142026
181	0x3eb3d5b6	0.35123986
182	0x3ebd925c	0.37025726
183	0x3ed1196c	0.40839708
184	0x3eae0460	0.33987713
185	0x3ebe5acb	0.37178645
186	0x3ebc7973	0.36811408
187	0x3eb3ec8a	0.35141402
188	0x3ee2e1e9	0.4431298
189	0x3eba71c5	0.36414924
190	0x3ebddefd	0.3708419
191	0x3ec28efc	0.37999713
192	0x3ed25882	0.4108315
193	0x3ec574e7	0.38565752
194	0x3eb13177	0.3460805
195	0x3eafde63	0.34349355
196	0x3eadaa6e	0.3391909
197	0x3eb0459f	0.34428117
198	0x3eb8fc45	0.36129966
199	0x3ec8c8b6	0.3921563
200	0x3eb995fd	0.36247244
201	0x3ec46b56	0.3836314
202	0x3eabf01f	0.33581635
203	0x3ea878dd	0.3290471
204	0x3ea783a6	0.32717627
205	0x3ed3b65b	0.41350064
206	0x3ebb6a3b	0.36604485
207	0x3ebd4553	0.36966953
208	0x3ec228c8	0.3792174
209	0x3ec74144	0.3891698
210	0x3ed120c6	0.40845317
211	0x3eb8f334	0.3612305
212	0x3ec718e3	0.38886175
213	0x3eac1717	0.33611366
214	0x3ec220ad	0.37915555
215	0x3eac7023	0.33679304
216	0x3eba92e3	0.3644019
217	0x3ebec045	0.37256065
218	0x3ea95496	0.33072346
219	0x3ec9972f	0.39373156
220	0x3eb01efc	0.3439864
221	0x3ecbaff3	0.39782676
222	0x3ed35410	0.41275072
223	0x3ec6b533	0.3881012
224	0x3ee31717	0.44353554
225	0x3eb07d63	0.34470662
226	0x3eb550fc	0.3541335
227	0x3eafff57	0.34374496
228	0x3ed55ccf	0.4167237
229	0x3eb5b77d	0.35491553
230	0x3eb30c93	0.3497053
231	0x3e8e4eff	0.27794644
232	0x3ec5c36f	0.38625666
233	0x3ece2b5d	0.4026746
234	0x3ec5fb8e	0.38668483
235	0x3eb087c2	0.34478575
236	0x3ec349cc	0.3814224
237	0x3eb930d8	0.36170077
238	0x3eaad1fa	0.33363324
239	0x3ecb93a7	0.39761087
240	0x3eb756e3	0.35808477
241	0x3eb1ba8a	0.3471263
242	0x3ecd5bc3	0.4010907
243	0x3ec0c33d	0.37648955
244	0x3eb17510	0.34659624
245	0x3ebbdb00	0.3669052
246	0x3eb4189e	0.3517503
247	0x3ecde1a5	0.40211216
248	0x3ee100fa	0.43946058
249	0x3eb0b9da	0.34516793
250	0x3eb2815f	0.34864327
251	0x3ec8d74e	0.39226764
252	0x3ecd7ced	0.40134373
253	0x3eb4b1a6	0.35291785
254	0x3ec9ef8f	0.3944058
255	0x3ec32659	0.38115194

sp1.tau f4 [256]
0	0x3f1494c1	0.5803948
1	0x3f1db1f3	0.61599654
2	0x3f14aa14	0.5807202
3	0x3f238fde	0.638914
4	0x3f0e2c69	0.55536515
5	0x3f1cdea9	0.6127725
6	0x3f22ba62	0.6356565
7	0x3f24a171	0.6430884
8	0x3f1a3d29	0.60249573
9	0x3f10b012	0.5651866
10	0x3f0fbef8	0.5615077
11	0x3f174e15	0.5910352
12	0x3f24e5b3	0.64412993
13	0x3f194699	0.5987335
14	0x3f1d4e2f	0.61447424
15	0x3f128dc8	0.5724759
16	0x3f16568a	0.587258
17	0x3f21d95b	0.63222283
18	0x3f1cc1a5	0.6123298
19	0x3f212bfc	0.6295774
20	0x3f225120	0.63405037
21	0x3f2647e3	0.6495344
22	0x3f26057c	0.6485212
23	0x3f125ab7	0.5716967
24	0x3f119f61	0.5688382
25	0x3f18f2f5	0.59745723
26	0x3f105726	0.5638298
27	0x3f0ddbfa	0.5541378
28	0x3f1f997a	0.6234356
29	0x3f0e261a	0.5552689
30	0x3f19079f	0.59777254
31	0x3f1c233a	0.6099125
32	0x3f15bb5f	0.5848903
33	0x3f1f69ea	0.6227099
34	0x3f15e259	0.58548504
35	0x3f1295f0	0.57260036
36	0x3f108aae	0.5646161
37	0x3f0d2bb5	0.55144817
38	0x3f0d89c8	0.5528836
39	0x3f1ceafb	0.6129605
40	0x3f1640a6	0.58692396
41	0x3f101f7e	0.56298053
42	0x3f1c7ea3	0.6113073
43	0x3f1324a5	0.5747779
44	0x3f1c9d86	0.6117786
45	0x3f2601f2	0.6484672
46	0x3f1fc99f	0.62417024
47	0x3f1449e5	0.57925254
48	0x3f1fd11f	0.6242847
49	0x3f21924a	0.63113844
50	0x3f1c55bc	0.6106832
51	0x3f1c6bfd	0.6110228
52	0x3f1c68b3	0.6109726
53	0x3f121d6a	0.5707613
54	0x3f12666e	0.57187545
55	0x3f23ccc6	0.63984334
56	0x3f208a64	0.6271117
57	0x3f1db3c0	0.616024
58	0x3f10ad3b	0.5651433
59	0x3f1515ed	0.5823658
60	0x3f12b392	0.5730525
61	0x3f21a314	0.6313946
62	0x3f183409	0.594544
63	0x3f22f44b	0.6365401
64	0x3f1220e5	0.57081443
65	0x3f190088	0.59766436
66	0x3f231999	0.63710934
67	0x3f14a030	0.58056927
68	0x3f252abe	0.64518344
69	0x3f1dd80b	0.6165778
70	0x3f190732	0.59776604
71	0x3f236759	0.6382957
72	0x3f12426d	0.5713261
73	0x3f14feb7	0.58201164
74	0x3f23e0ba	0.6401478
75	0x3f0f0838	0.55871916
76	0x3f13d572	0.57747567
77	0x3f17e8ee	0.593398
78	0x3f25dfe1	0.6479474
79	0x3f247982	0.64247906
80	0x3f0cc9c6	0.5499538
81	0x3f1b646d	0.6070011
82	0x3f19fa96	0.6014799
83	0x3f177caf	0.5917463
84	0x3f0eef87	0.5583424
85	0x3f1b3c20	0.6063862
86	0x3f1ea347	0.6196789
87	0x3f2444ee	0.6416768
88	0x3f2583e7	0.6465439
89	0x3f0ec80f	0.55774015
90	0x3f19948c	0.5999229
91	0x3f1417fc	0.578491
92	0x3f1403cc	0.57818294
93	0x3f1b80de	0.6074351
94	0x3f25f168	0.6482148
95	0x3f248649	0.642674
96	0x3f179990	0.5921869
97	0x3f18d7cc	0.5970428
98	0x3f1ef8ae	0.62098205
99	0x3f1cfb71	0.6132117
100	0x3f153f66	0.58299863
101	0x3f22c667	0.6358399
102	0x3f254502	0.6455842
103	0x3f167e7c	0.5878675
104	0x3f17fbde	0.59368694
105	0x3f22f7a0	0.63659096
106	0x3f19e83f	0.60120004
107	0x3f188d0a	0.5959021
108	0x3f1ffb2d	0.6249264
109	0x3f135de1	0.5756512
110	0x3f12fe49	0.5741926
111	0x3f1616b9	0.5862842
112	0x3f15a6dc	0.5845773
113	0x3f21c6b5	0.6319383
114	0x3f0e7e23	0.5566122
115	0x3f1069d9	0.5641151
116	0x3f12a59b	0.57283944
117	0x3f1ca160	0.6118374
118	0x3f1034af	0.5633039
119	0x3f1cda59	0.6127067
120	0x3f22d660	0.6360836
121	0x3f25ff7d	0.6484297
122	0x3f11a47a	0.56891596
123	0x3f1bc170	0.6084204
124	0x3f135818	0.57556295
125	0x3f192ef7	0.5983729
126	0x3f112273	0.5669319
127	0x3f16e135	0.5893739
128	0x3f25f47e	0.6482619
129	0x3f1ad811	0.6048594
130	0x3f22445f	0.63385576
131	0x3f15d254	0.5852406
132	0x3f1af4bb	0.6052968
133	0x3f19aa14	0.60025144
134	0x3f1d2505	0.6138461
135	0x3f1ce76b	0.61290616
136	0x3f1d0d8a	0.61348784
137	0x3f0e872f	0.55675024
138	0x3f2072b1	0.62675005
139	0x3f0fafdb	0.5612771
140	0x3f11ef34	0.5700562
141	0x3f1981ff	0.59963983
142	0x3f226408	0.63433886
143	0x3f21559f	0.6302127
144	0x3f1d39d0	0.6141634
145	0x3f170758	0.5899558
146	0x3f261754	0.64879346
147	0x3f201ca5	0.6254371
148	0x3f23fd70	0.6405859
149	0x3f0ead6a	0.5573336
150	0x3f21c836	0.6319612
151	0x3f102ebc	0.5632131
152	0x3f0ed85d	0.55798894
153	0x3f1898f6	0.596084
154	0x3f19d8ea	0.6009661
155	0x3f263b83	0.6493456
156	0x3f12c9f1	0.5733939
157	0x3f1d9519	0.6155563
158	0x3f1f4800	0.6221924
159	0x3f1d3940	0.6141548
160	0x3f1b4fcf	0.60668653
161	0x3f1e31f4	0.6179497
162	0x3f227ad9	0.634687
163	0x3f0e69b0	0.55630016
164	0x3f122af4	0.5709679
165	0x3f25aba4	0.6471503
166	0x3f125b66	0.5717071
167	0x3f1bed58	0.6090903
168	0x3f182a5b	0.5943963
169	0x3f0f07be	0.5587119
170	0x3f19b51f	0.60041994
171	0x3f25b367	0.6472687
172	0x3f247ef1	0.642562
173	0x3f1a32fd	0.6023405
174	0x3f207682	0.6268083
175	0x3f0d490f	0.55189604
176	0x3f16a3b3	0.58843535
177	0x3f14ff21	0.58201796
178	0x3f2237f8	0.6336665
179	0x3f123306	0.57109106
180	0x3f21baa1	0.631754
181	0x3f13377d	0.57506543
182	0x3f1a07b2	0.6016799
183	0x3f1281da	0.5722939
184	0x3f1c1250	0.6096544
185	0x3f1152aa	0.5676676
186	0x3f1eff1c	0.62108016
187	0x3f22a56a	0.6353365
188	0x3f1823ed	0.5942982
189	0x3f196779	0.5992351
190	0x3f0fd7cb	0.5618865
191	0x3f1073fd	0.56426984
192	0x3f10d9d1	0.5658236
193	0x3f1a3b39	0.60246617
194	0x3f140c83	0.5783159
195	0x3f1ab0ae	0.6042584
196	0x3f20edd0	0.62862873
197	0x3f1c87ed	0.61144906
198	0x3f19fa42	0.6014749
199	0x3f0ea737	0.557239
200	0x3f227cf9	0.63471943
201	0x3f20eff2	0.6286613
202	0x3f170aed	0.59001046
203	0x3f20003d	0.62500364
204	0x3f16b258	0.5886588
205	0x3f180ff2	0.5939933
206	0x3f214d8a	0.6300894
207	0x3f1a812a	0.6035334
208	0x3f19b4ff	0.60041803
209	0x3f1a5102	0.6027986
210	0x3f11f882	0.5701982
211	0x3f0e8984	0.5567858
212	0x3f191f23	0.59813136
213	0x3f105a7f	0.56388086
214	0x3f25f104	0.64820886
215	0x3f0ea112	0.55714524
216	0x3f14d0ae	0.5813092
217	0x3f107f33	0.5644409
218	0x3f116c36	0.5680574
219	0x3f22f745	0.63658553
220	0x3f16018a	0.585961
221	0x3f0df3f2	0.55450356
222	0x3f25f407	0.6482548
223	0x3f11fff4	0.5703118
224	0x3f0e62c3	0.5561945
225	0x3f236161	0.63820463
226	0x3f1fbdb9	0.6239887
227	0x3f1e6ba1	0.6188298
228	0x3f1255ec	0.57162356
229	0x3f2631dd	0.64919835
230	0x3f0f50b2	0.55982506
231	0x3f182e35	0.59445506
232	0x3f1895bb	0.5960347
233	0x3f103106	0.56324804
234	0x3f1661e5	0.58743125
235	0x3f126fd6	0.572019
236	0x3f0cf425	0.55060035
237	0x3f0e8bfa	0.5568234
238	0x3f1427dc	0.5787332
239	0x3f1b18cf	0.6058473
240	0x3f1f5090	0.62232304
241	0x3f0cd368	0.5501008
242	0x3f263fb8	0.6494098
243	0x3f0ff1b6	0.56228197
244	0x3f100db7	0.5627093
245	0x3f1b0dda	0.6056801
246	0x3f13a0f7	0.5766749
247	0x3f193b6c	0.59856296
248	0x3f1290b5	0.57252055
249	0x3f1cd39c	0.6126039
250	0x3f0eaabc	0.5572927
251	0x3f21a571	0.6314307
252	0x3f25d0ea	0.647719
253	0x3f1d5ade	0.6146678
254	0x3f23df92	0.64013016
255	0x3f146945	0.5797313
