Model/model.pth (torch, 779719 bytes, 24 tensors)

fc1.layer.weight f4 [256, 192]
00000000: 1595 553d c219 d53c 0429 07be 9974 22be
00000010: e846 53bd 08fb 9abe fe5d c5bd 9240 a5bc
00000020: 4850 03be 9a81 143e c36d 583e 0844 76bd
00000030: 7299 903e 93f2 5fbe 5e2f b0bd c15d 413e
00000040: 6f89 8fbe f80c 15bd 10c3 05be d11f f5bd
00000050: 44ee 993d d1a3 f33d 2849 663d 946e b13c
00000060: d3a2 03be 12af b33d efb1 cd3d 38d9 b0bc
00000070: f7b1 3e3e 8f74 d33d f288 8fbe 3523 72bd
00000080: 67ca 813c 8281 82be bd36 e6bd 4678 35be
00000090: 1ca3 78bd cf6d 2bbd 8ce2 d1bd 111b 65bc
000000a0: 35c1 8abc 5c05 fc3d b7cf b9bd 5e58 bcbd
000000b0: 5b8a 8cbc 3410 2d3e 61e1 b2bd df2b fdbd
000000c0: 8700 913d 041f d4bd 38e7 673d 06c1 a4bd
000000d0: 4eed 333d 8785 6d3e e14b 70bd e25d e43d
000000e0: 9031 03bd 69c2 753e 9dfc 173c b2d2 123e
000000f0: b2f4 1d3d 2657 cabd 847f 8c3d 54e1 bebd
00000100: e1cc 6dbd ab62 d03d ac13 febc a018 f1bc
00000110: 7def 3a3d e88c bc3c c1e0 803d e888 1d3e
00000120: 1aa7 39be fc04 98be 7a6a 6c3e fa8c 3bbc
00000130: eb5e 01be a9e4 20be 899b 2e3e 5ad0 403e
00000140: cc33 a43d be46 63bc 3eea dcbb bf36 7d3d
00000150: 8f2c 9f3d 3691 5a3d f259 823d 5665 3cbe
00000160: bb1b bbbd 2688 72bc ad41 4cbe 081e 0ebe
00000170: 4a45 84ba 30f7 7abe 3ea9 c43d 397d 13be
00000180: 8830 ae3e e41f d7bc 80bb 6abd 9ad9 923e
00000190: 1f3c 903d 4358 443e a93b 0f3c fc7a 533e
000001a0: f8b3 463d 8336 92bd a283 8abd 33e8 fabd
000001b0: cb34 063e 9bea 4dbe 42e6 8dbe 3943 15be
000001c0: 88c2 953e 816b 933d 72bd e3bd a0d6 04be
000001d0: 28cd 43be 0670 633e 10e8 81bd 64ca 82bd
000001e0: 3fac b2be 5b80 80be 24e8 4ebd aed7 b1bd
000001f0: 614e de3d 54a4 203e 23b6 4abe 6b98 883d
00000200: c32d a23d 62c1 01be d431 603d 94e2 2d3e
00000210: 5c96 843d be52 3abc b94d 273d ae83 033e
00000220: 1321 233e b579 243e b6af 583c cd01 793d
00000230: 49fa 01be 9532 2abc 3f0f 093e 0338 eb3b
00000240: 1b7a 9d3c 2203 073e c677 2f3e 4bbc ea3c
00000250: 2673 c3bd edc2 2f3d 80a3 01bd 8155 7cbd
00000260: 7cce 133e 600a fa3c d222 443e e479 513d
00000270: 6356 1a3e d3d5 b83d 6e00 abbe 054b ba3d
00000280: 9ac1 07be 1f11 aebd d332 0fbe b61f 6f3d
00000290: 2fe4 79be 52bd 1fbd 7dd7 d0bd 5e31 13be
000002a0: ca8e 00be bd12 b5bc ad24 06be 0c3c a6bd
000002b0: a0b3 8bbe 28e0 f6bd 4bac 1c3e 34fa d0bd
000002c0: 2be4 89bc 4846 243c 7d56 a8bd 29e7 c73d
000002d0: 0112 e63d 4fba 843d 30ff 893d ad3b 8b3e
000002e0: 23c3 e5bd 08e4 eabc 693d 053e 6740 aebe
000002f0: ba4b f93d 8228 c73e bfb1 0b3d 4ce9 0cbe
00000300: d221 bf3d e395 11bd 546c 123d 1493 00bd
00000310: 3dc5 01bc 895c 803d 5b34 c4bc 1858 e7bd
00000320: 270c c33d 65d7 acbd fc8b 06be aeae cfbb
00000330: 782d 2abd 7512 a33a d731 50bd 9631 12be
00000340: 46fd 24be c253 fe3d 8720 e2bd db0f 083d
00000350: fe9c 2e3e 1d02 dbbd 4d62 c03d f916 a4bd
00000360: 25fd 0dbd a4ab bcbd 20b1 2dbe a2cf 92bd
00000370: a2a3 ec3c 46b2 ba3d 68cc 303e 1e8f bd3d
00000380: e480 0a3d ffff c5be aa82 26be 4156 febd
00000390: 64ab 49be 54ae 2bbe 3854 b4bd 60c8 96bd
000003a0: f796 1fbe 6393 cdbb 1218 053e 6c67 dc3c
000003b0: 906f b53d 4ee2 f73d 0e89 00be a859 60be
000003c0: d07f 00be df46 5f3d 8ad8 01bc b04a 773d
000003d0: ac37 7a3d 6d0d 403d 5902 4c3c 1ca2 c53d
000003e0: 2aa1 6fbd 83f2 5cbe 9be3 f7bc a3d6 93bd
000003f0: ff8e cdbd dc0f 74bd a746 bbbd e4db bb3d
0.05214413 0.026013259 -0.1319924 -0.15864791 -0.051581293 -0.30269647 -0.09637068 -0.020172391
-0.12823594 0.14502564 0.21135621 -0.060123473 0.2824207 -0.21869878 -0.086027846 0.1888342
-0.2803454 -0.03638932 -0.13062692 -0.11968959 0.07516149 0.1189648 0.05622211 0.021659173
-0.12855081 0.087736264 0.10043704 -0.021587953 0.18622576 0.10324966 -0.28034168 -0.059115607
0.015843583 -0.25489432 -0.11240909 -0.17721662 -0.06070243 -0.04185277 -0.102482885 -0.013983504
-0.016937831 0.1230571 -0.090728216 -0.09196542 -0.017155817 0.16900712 -0.08734394 -0.12361883
0.07080179 -0.10357478 0.05661699 -0.08044629 0.043927483 0.23195468 -0.058666114 0.11150719
-0.03202969 0.23999943 0.009276536 0.14338186 0.038563438 -0.098799035 0.06860259 -0.09320322
-0.058056716 0.101750694 -0.03101524 -0.029430687 0.04563855 0.023016408 0.062928684 0.15384257
-0.1813015 -0.29691303 0.23087493 -0.011447186 -0.12633865 -0.15712227 0.1705152 0.1882948
0.08017692 -0.013871847 -0.006741791 0.061819788 0.07772171 0.05336114 0.06364812 -0.18398032
-0.091361485 -0.014802968 -0.19946928 -0.13878644 -0.001009145 -0.24508357 0.09602593 -0.14403237
0.340214 -0.026260324 -0.05730772 0.28681642 0.07042717 0.19174294 0.008742251 0.20652384
0.048511475 -0.071393035 -0.06763388 -0.1225132 0.13106076 -0.20109026 -0.27714735 -0.14576425
0.29249978 0.07198239 -0.11120118 -0.12972498 -0.1912123 0.22210702 -0.063430905 -0.06386259
-0.34897038 -0.25097927 -0.050514355 -0.08683716 0.10854793 0.15687686 -0.19796042 0.066696964
0.079188846 -0.12671426 0.05473502 0.16980964 0.06473991 -0.011372266 0.040845606 0.128432
0.15930586 0.16062053 0.0132254865 0.060792733 -0.12693132 -0.010388036 0.13384722 0.007178308
0.019223263 0.13184789 0.17135534 0.028654238 -0.09543447 0.042910505 -0.031650066 -0.06160498
0.14434236 0.030522525 0.19153908 0.051141635 0.15072016 0.09025159 -0.33398765 0.0909634
-0.13257447 -0.08499359 -0.13984232 0.05837985 -0.24403451 -0.03899891 -0.10197351 -0.14374301
-0.1255447 -0.022103662 -0.13099928 -0.08116922 -0.2728548 -0.12054473 0.153001 -0.102039725
-0.016832432 0.010026522 -0.08219621 0.09760887 0.11233903 0.06480848 0.06738126 0.27193967
-0.1121886 -0.028673187 0.13011707 -0.3403351 0.12172647 0.38898093 0.03410506 -0.1376087
0.093326226 -0.035543334 0.03574784 -0.031390265 -0.00792056 0.0626765 -0.023950746 -0.112960994
0.09523802 -0.08439521 -0.13139337 -0.006337962 -0.04154727 0.0012441414 -0.05082878 -0.14276728
-0.16112241 0.12418319 -0.1104136 0.033218246 0.17052075 -0.106937625 0.093937494 -0.08012194
-0.034665246 -0.09212425 -0.16962099 -0.07168509 0.02888662 0.09116034 0.17265475 0.09255813
0.033814326 -0.38671872 -0.16260782 -0.124187954 -0.19694287 -0.1676572 -0.08805126 -0.07362437
-0.15584932 -0.0062736734 0.12997463 0.026904784 0.088591695 0.12103711 -0.12552282 -0.21909201
-0.12548757 0.054510947 -0.007925162 0.060373962 0.06108825 0.046887804 0.012451732 0.096500605
-0.058503307 -0.21576886 -0.030259898 -0.07218673 -0.1003704 -0.059585437 -0.09144335 0.091728

fc1.layer.bias f4 [256]
00000000: 94de 87bc 47a7 59bc 7f97 3b3d 2af1 75be
00000010: d962 7fbd 672b b0bd 62a3 3cbe 2e84 ee3d
00000020: 0ded 043d 0ba7 a3be 6e85 ecbd 4ab1 33be
00000030: 219f 68be 4b86 1fbe d85a e6bc d9e0 abbc
00000040: 34dc a7bd 5ab3 263e f3e9 c1bc 53d9 28be
00000050: a316 5fbe 8daf 1fbe 98dd 8cbe b2e3 af3d
00000060: bba1 3cbe b210 84be 3601 e5bd 9ce4 c5bc
00000070: baa8 2fbd d730 26be d019 ab3d cf78 1fbe
00000080: 5a2f 513d ce05 48be 8b3f 4fbc 18d3 7c3b
00000090: 7eef 86be 9ac0 973d f528 2c3d aa6a 0f3d
000000a0: 238c a2bd 325d 04be 1019 65be f462 1dbe
000000b0: 6b38 5ebd f520 85be 67aa 45be c018 65be
000000c0: 7049 0cbe 69cb a13b 21f3 0a3c 3af6 c53d
000000d0: 7b36 92bd cb93 abbd 2050 85be b8e1 e7bd
000000e0: 0a3f 903b 622e 12be 121b 78bc 1191 553d
000000f0: 26cb bcbe e382 2bbd 0d21 a1bd f123 efbc
00000100: 3171 45be e701 0ebe 2a45 26be d61f 01bc
00000110: 1f48 85be ea99 1b3e a66b 74bd 39d0 6dbe
00000120: 8844 d3bd 0eb6 cebd 30b8 8dbc 83ac d8be
00000130: abb7 8dbe 3403 fcbd 854b 4abd b1b9 a83c
00000140: ef01 1abd ccbb 91be 8154 cd3b 9cb4 a4be
00000150: 4fae 5bbd f38b 63be a519 bd3d 8374 ecbd
00000160: 538b 91bd dea9 d7bd c1b9 3dbe 22b7 a0be
00000170: e4ee 0fbe 445c f13b 5911 b5bd 3a85 9ebd
00000180: 5d14 07be cfa3 603e f550 ebbd f8ba 0fbd
00000190: e465 31bd cb93 69be dde7 4fbe bc6c 263d
000001a0: e15a c9bd 5135 28be 5d08 07be a273 54bc
000001b0: da01 1cbe befc 5ebe 196f 5bbd a166 b43d
000001c0: e48c 71bd 955c 6cbd 3d71 97bd 2e1a 9dbd
000001d0: f423 4abd 3ac7 41be 6e11 a73c 1b97 4cbe
000001e0: 83a0 cabd 7226 29be 22f8 99ba e490 42bd
000001f0: 5722 533d 4b58 913d 00d8 1bbd 748e e63b
00000200: 2652 84be 41df 11bd 0f79 9e3d a2cd 71be
00000210: 66c6 a0bd 5277 7cbe bac7 15bd c0d0 273d
00000220: c291 1cbe b9dd e2bc 236d afbd 25fe f23d
00000230: 8952 893d ab4d fbbc 9b57 03be 5765 a4bd
00000240: ba04 f9bd 0b13 dabd c181 76be b7a1 01bd
00000250: 0d03 f7bd 5167 43bd de6a fbbd de02 27be
00000260: 133e 48be 713b 38bb 5bf9 dc3c 5463 29be
00000270: db60 57be 5ea5 c2be 110a 71be d8b9 84bd
00000280: 580e a4be 8b8c 5cbe 895c 75be 45c8 8fbe
00000290: e033 2dbd e652 183e f85e 153e 1e40 ddbd
000002a0: 6096 07be 09d2 1a3e ba0a 31be 64f9 82be
000002b0: 9e80 e9bd c4ed 0dbe 942c f6bd dfc9 2fbe
000002c0: 78d1 62bd aba5 58be e775 583d 79d3 71be
000002d0: f11a 43be da10 b3bd 9cac 7dbe cd3b a5bd
000002e0: a8f3 1ebe e0b2 c8bd ff2e cabd a20b 333e
000002f0: 7923 08be f571 d3bd f34a a73d 9d11 26be
00000300: a59b 91be 57cb 8cbd 7689 eebd 7204 4bbe
00000310: d135 a3bc eece 893d 161a 47be cc01 1abe
00000320: 686a 5b3d eca8 6bbd 506b e5be 581e 4cbe
00000330: 4b7e 7bbe dd66 083e d2a9 743d 907e b3bd
00000340: 582c fabd 35d6 dd3d b74a 70bd 5395 0dbd
00000350: 891f 233e 07ae 603d 3d24 ccbd dcff bcbc
00000360: 2e5b 20be d6aa d9bd cd02 11bd 5781 2bbd
00000370: 91ec 39bb 6e42 ccbc 0cb0 6bbe b059 adbc
00000380: b5dc 123d 794f 45bd ccd7 fe3c b7d2 04bd
00000390: ae96 f1bd 93df 1ebe f403 54be 55e6 c9bd
000003a0: a69d a4be 6498 34be 24ba 14be a886 12be
000003b0: 3e6d babd b3c8 59be 22a5 c8bd 2676 82bc
000003c0: 6fc0 09be 54c9 a7bd 8d49 54be 7fe0 fd3d
000003d0: dd6b 8a3d 6759 66be 3d19 ffbd afe8 4d3e
000003e0: a2d2 63be 116d 263d 4651 9bbe 4f0f 383d
000003f0: 68d8 a5bd c08d ee3c 26cc c2be ed31 9d3c
-0.016585626 -0.013284511 0.045798775 -0.24017778 -0.062350128 -0.08602028 -0.184217 0.11646305
0.03245263 -0.3196338 -0.11548887 -0.17548099 -0.22716953 -0.15578572 -0.02811949 -0.02098124
-0.08196297 0.16279355 -0.023671126 -0.16489153 -0.21785979 -0.15594311 -0.27512813 0.08588351
-0.1842107 -0.25793988 -0.111818716 -0.024156861 -0.04288552 -0.16229568 0.08354533 -0.15573429
0.05107055 -0.19533464 -0.012649427 0.003857797 -0.26354593 0.07409783 0.042031247 0.035013832
-0.07936885 -0.12926176 -0.22372842 -0.15369779 -0.054253023 -0.26001707 -0.19303285 -0.22372723
-0.13699889 0.0049375785 0.008480818 0.096661046 -0.071392976 -0.08377799 -0.26037693 -0.11322349
0.004402046 -0.14275506 -0.015143173 0.0521403 -0.3687374 -0.04187287 -0.07867632 -0.029191943
-0.1928146 -0.13867913 -0.16237321 -0.007881125 -0.26031587 0.15195432 -0.059672974 -0.23223962
-0.10315806 -0.10093318 -0.017299742 -0.42319116 -0.2767919 -0.123052984 -0.049388427 0.020596357
-0.0375995 -0.2846359 0.006266177 -0.32169044 -0.05363303 -0.22221355 0.09233407 -0.1154566
-0.07106652 -0.105304465 -0.1852789 -0.3138972 -0.14055973 0.0073657352 -0.088411994 -0.07740255
-0.13191362 0.21937488 -0.11490051 -0.035090417 -0.04331006 -0.22810285 -0.20303293 0.04063104
-0.09831787 -0.16426589 -0.13186784 -0.012967022 -0.15235081 -0.21776101 -0.053572748 0.088086374
-0.058972254 -0.05770548 -0.07394645 -0.07671009 -0.049350694 -0.18923655 0.020394053 -0.19979517
-0.098938964 -0.16518572 -0.0011746923 -0.04750146 0.05154642 0.07096919 -0.03804779 0.0070360247
-0.25843924 -0.035613302 0.07737934 -0.23613599 -0.078503415 -0.24654892 -0.036567427 0.040970564
-0.15289977 -0.027693616 -0.08565738 0.118648805 0.067051955 -0.030676683 -0.12826388 -0.080271415
-0.12159105 -0.106481634 -0.24072935 -0.031648364 -0.12061129 -0.047705952 -0.12276243 -0.16309687
-0.1955493 -0.0028111602 0.02697437 -0.16541797 -0.21033041 -0.3801679 -0.23538996 -0.064807594
-0.32042193 -0.21537988 -0.2396108 -0.2808248 -0.0422858 0.14875373 0.14587009 -0.10803245
-0.13240957 0.15119185 -0.17289248 -0.25580895 -0.11401485 -0.13860232 -0.12020221 -0.17166851
-0.055375546 -0.21156947 0.052846815 -0.23615827 -0.19053246 -0.087434486 -0.24772877 -0.08068047
-0.15522635 -0.09799743 -0.09872245 0.17484906 -0.13294782 -0.1032447 0.08168592 -0.16217656
-0.2843906 -0.068747215 -0.11647312 -0.19825915 -0.019923123 0.06728922 -0.19443545 -0.15039748
0.053568274 -0.057534143 -0.44808435 -0.1993345 -0.24559896 0.13320489 0.059732266 -0.08764374
-0.12215489 0.108318724 -0.058665004 -0.034566235 0.15929998 0.054853465 -0.099678494 -0.023071222
-0.15659782 -0.106282875 -0.03540306 -0.041871395 -0.0028369764 -0.02493402 -0.23016375 -0.02116093
0.035855014 -0.048171494 0.03110876 -0.032427516 -0.11796318 -0.15514974 -0.20704633 -0.098583855
-0.32151526 -0.17636257 -0.14524132 -0.1430918 -0.091028675 -0.21267967 -0.097971216 -0.015925478
-0.13452314 -0.08192697 -0.20731182 0.12396335 0.067588545 -0.22495042 -0.12455986 0.20108293
-0.22248319 0.040631358 -0.30335444 0.044936474 -0.08097917 0.029120326 -0.38046378 0.019188846

dr1.bn.weight f4 [256]
00000000: 2f05 843f e6b0 2f3f 76e9 723f 4197 633f
00000010: 0ca6 293f 8fef 5b3f f9d4 383f f117 333f
00000020: 33b6 3b3f 227c 263f 2717 533f 092b 4f3f
00000030: 6313 4c3f f194 4b3f ebef 663f 826a 4b3f
00000040: d879 4b3f b692 613f a15f 863f 301d 583f
00000050: 8067 3f3f 7615 633f 9ed2 513f d0f9 6d3f
00000060: 84de 533f 4d31 313f 5e7d 5c3f 72dd 583f
00000070: 9f82 4b3f edd1 713f 13ae 3e3f 663c 5d3f
00000080: ed1b 4e3f a555 383f 8edc 553f 945d 353f
00000090: 3253 403f 2260 523f e639 513f 98c2 403f
000000a0: f14f 4d3f 21d1 613f 5a78 403f c283 6a3f
000000b0: 042e 823f 56dd 2d3f e0ce 4c3f cf67 493f
000000c0: 3b0a 693f 7300 7a3f c4e4 4d3f 1389 613f
000000d0: 3ea7 653f 23c7 533f 4c05 3c3f b2f3 3e3f
000000e0: 1dbc 393f caec 6c3f e5b0 4d3f a633 7c3f
000000f0: cfbf 4c3f 6b85 6e3f e22f 553f bf20 843f
00000100: 8746 543f 58ee 5c3f a8c6 683f 8fd2 493f
00000110: 89d8 383f fb41 5e3f 1bbb 283f 097e 523f
00000120: d950 433f 0581 273f 02a1 493f 1203 3a3f
00000130: a6c5 6a3f 9c87 2a3f f566 403f 234c 6c3f
00000140: 845c 403f 2e1a 473f 28d5 3c3f 8ab2 4f3f
00000150: 8640 3e3f 2277 643f e403 6e3f 0eda 773f
00000160: ea1f 3c3f 841d 553f 2048 423f 6688 443f
00000170: 8390 3f3f b23d 653f 8208 673f 6fab 533f
00000180: 827b 3c3f 7dff 4c3f 81f3 653f 0ee9 6e3f
00000190: e3a9 753f f2a7 483f c24d 483f ffbe 623f
000001a0: db69 533f 5d2c 513f 8227 693f 5f9e 583f
000001b0: 7e25 473f aa57 403f ef20 4c3f 6f61 373f
000001c0: d408 823f 2d08 533f 9ea9 653f 3ae2 613f
000001d0: 8d74 643f 70ac 4e3f f506 4b3f bd7a 353f
000001e0: 9028 613f 3e2f 433f 0cb8 6e3f e80b 733f
000001f0: a4f7 643f 9ce9 5f3f 11a6 263f d413 4f3f
00000200: 1f65 193f 3ee4 7b3f bb38 753f 922c 413f
00000210: a80f 643f 0c8a 533f b3d8 613f e4f0 523f
00000220: 6067 213f 65e8 683f 9f9d 493f c95c 753f
00000230: 1e83 5b3f 5811 853f 81fd 523f 421f 4c3f
00000240: da13 743f a14c 603f c24d 373f c413 753f
00000250: e363 503f b2e0 6e3f cd79 613f a368 543f
00000260: 9839 2d3f 2ce8 443f 229c 5c3f d34f 533f
00000270: 3727 483f 427b 563f 0995 633f d285 593f
00000280: 79fd 553f 2de9 393f 5b89 3d3f 0c22 363f
00000290: a071 523f 6f9d 613f 5f90 463f 32a0 573f
000002a0: ec6b 6b3f d6af 723f bb04 4c3f 0cf6 2a3f
000002b0: 4cb2 3c3f 9947 4a3f 05eb 573f 4d86 553f
000002c0: 80ad 393f 5c31 6f3f 6703 893f 8ace 533f
000002d0: 4e86 6e3f 1eda 653f a99d 703f 2096 1c3f
000002e0: a1ac 6d3f f0e6 313f f27f 673f 6ee3 643f
000002f0: ce4e 4d3f 386d 453f 8a4e 3e3f 0630 163f
00000300: 8657 513f cafc 553f ab12 2d3f 6db2 403f
00000310: a235 613f 1edd 393f 24e0 5c3f 7ca6 043f
00000320: ff05 1f3f e83f 4f3f da72 563f 6d25 633f
00000330: f202 803f 12be 843f 9e38 6b3f ad4d 433f
00000340: 8023 513f 3a9f 603f 1b40 3b3f c28d 1f3f
00000350: 6a7b 453f 6128 4d3f 2ff6 483f 582d 7c3f
00000360: 30f0 5e3f 01c0 713f a8b3 383f 2f1f 803f
00000370: 7fc0 673f 63ee 313f aa3d 303f 20a4 473f
00000380: a0a3 443f 2d81 4f3f fcdf 5d3f f35c 393f
00000390: 0978 853f 3732 1b3f a45d 4a3f 64fc 223f
000003a0: abe8 303f a99f 483f aeba 513f 0771 4e3f
000003b0: 31cc 3c3f f267 3e3f 3e46 2a3f ec8a 463f
000003c0: 98d1 6b3f 8411 5c3f 379e 2c3f af9d 4f3f
000003d0: a8ac 653f b45d 583f f411 843f 2509 5a3f
000003e0: 80e3 7e3f c33a 3c3f 3a2c 823f bdb5 773f
000003f0: a538 363f 12b5 813f 5513 473f ecff 493f
1.0314082 0.686293 0.94887483 0.8890267 0.6626899 0.8591241 0.7219997 0.69958407
0.7332489 0.6503316 0.824572 0.8092504 0.7971708 0.7952414 0.90209836 0.79459393
0.79482794 0.8811449 1.0497934 0.84419537 0.74767303 0.8870462 0.81962 0.9295931
0.82761407 0.6921585 0.86128795 0.847129 0.79496187 0.94460946 0.74484366 0.86420286
0.8051136 0.72005683 0.83539665 0.70845914 0.75126946 0.8217794 0.8172897 0.75296926
0.80200106 0.8820973 0.7518364 0.91607296 1.0170293 0.67915857 0.80003166 0.78674024
0.91031235 0.97656935 0.80427194 0.88099784 0.89708316 0.82725734 0.7344558 0.745906
0.72552663 0.9254881 0.80348045 0.9851631 0.79980177 0.9317233 0.8327619 1.0322493
0.82920116 0.86301184 0.90928125 0.7883691 0.72205406 0.8681943 0.659105 0.82223564
0.7629524 0.65431243 0.78761303 0.72660935 0.9170784 0.66613173 0.751571 0.92303675
0.7514117 0.7777432 0.7376275 0.81131804 0.74317205 0.8924428 0.92974687 0.968171
0.73486197 0.8324816 0.75891304 0.7677063 0.7482988 0.89547265 0.90247357 0.8268346
0.7362596 0.80077344 0.8982468 0.93324363 0.9596235 0.78381264 0.7824365 0.88572687
0.825834 0.8170832 0.9107591 0.84616655 0.77791584 0.75133765 0.7973775 0.71633047
1.0158944 0.8243435 0.8971194 0.8823582 0.8924034 0.8073187 0.7930749 0.7089041
0.8795252 0.7624396 0.93249583 0.9494004 0.8944037 0.87465835 0.6509715 0.8088963
0.59919924 0.98395145 0.9578969 0.75458634 0.8908639 0.8263252 0.8822128 0.8239882
0.6304836 0.90979606 0.78756136 0.95844704 0.85746944 1.0395918 0.82418066 0.79735196
0.9534279 0.87616926 0.71603024 0.95733285 0.81402415 0.9331161 0.8807648 0.8297216
0.67666006 0.76916766 0.8617574 0.8254368 0.7818484 0.83781826 0.88899285 0.8496982
0.83589894 0.72621423 0.7403771 0.711457 0.8220463 0.8813085 0.7756404 0.84228814
0.9196155 0.94799554 0.7969472 0.6678169 0.7370956 0.790155 0.84342986 0.8340805
0.72530365 0.9343469 1.0704163 0.8273703 0.9317368 0.89785945 0.9399057 0.6116657
0.92841536 0.6949301 0.90429604 0.8940953 0.8019837 0.7711978 0.7433859 0.5866703
0.81774175 0.8358885 0.6760661 0.75272256 0.8797246 0.72603023 0.8627951 0.51816535
0.62118524 0.8095689 0.83769 0.8872898 1.0000899 1.0370505 0.91883266 0.762904
0.81694794 0.8774296 0.7314469 0.6232568 0.7714144 0.8013974 0.78500646 0.9850669
0.8708525 0.944336 0.72149134 1.0009516 0.905281 0.69504374 0.6884409 0.7798481
0.7681217 0.8105648 0.866699 0.72407454 1.0427257 0.60623497 0.79049134 0.6366637
0.69105023 0.7836862 0.81925476 0.80641216 0.7374907 0.7437736 0.6651343 0.7755573
0.9211669 0.85964227 0.67428917 0.8109998 0.8971658 0.8451798 1.0317979 0.85170203
0.9956589 0.73527163 1.0169747 0.96761686 0.7118018 1.0133383 0.77763873 0.7890613

dr1.bn.bias f4 [256]
00000000: d41a 8abe 05ed b8be 1e02 d13e 3271 bebe
00000010: ecb2 edbe 0d38 bfbe 716c bebe b4dd aabe
00000020: 3037 9cbe 4275 d1be 4663 acbe 88ab 1abe
00000030: 5ce9 b4be 0f0b 85be 3440 273b a761 86be
00000040: 81c7 91be 4479 b7bd f038 70be 3f04 bfbe
00000050: e064 7cbe 0fa7 92be ab8a 90be fb40 3fbe
00000060: d5a2 34be 80b6 b8be 531a 91be ca07 65be
00000070: cd2e 83be 87cd 5fbe b68b 8abe 15d4 61be
00000080: 822e 4abe 30ea a1be 3a99 b4be eafe 81be
00000090: 287f a0be 6115 99be 919f 7abe 9bdf 61be
000000a0: 6998 80be b58b 53be 4bf7 9abe d712 b0be
000000b0: d166 3fbe 6fbd 96be 15fc 95be ab62 9bbe
000000c0: 3a10 6dbe bb87 3bbe 05ea 65be 50d8 0dbe
000000d0: 4a45 59be ef4f 88be 389f d8be d454 a5be
000000e0: 4198 8cbe 523a 6cbe 68a7 e7bd 337c 35be
000000f0: 415b cbbe a343 edbd 04af aabe cc43 14be
00000100: 7c47 aebe 9f03 9cbe ed9c 5dbe 27d2 7ebe
00000110: 8966 c4be ad8e 0fbe c110 68be db3c a1be
00000120: 993f 81be b9b9 b4be 5567 8dbe 0b9f babe
00000130: f96b 9cbe 4f09 35be ef71 a1be 0849 50be
00000140: 855d 77be ca4a cfbe cdcd a6be a1c3 87be
00000150: 24dd b2be 3270 9abe 4f5c 03be bd26 95be
00000160: b411 bcbe 5ed6 91be 90e3 b0be db76 1ebe
00000170: 396d 9dbe 73d4 0fbe 25d5 ddbd 398c 7abe
00000180: 71e4 acbe 9180 05be 3d21 b0be 2aee 9ebe
00000190: d4eb b0be b130 c3be 98ed d4be 47dc 7ebe
000001a0: 5ccd 75be b59f 89be f04f 8cbe 8a29 89be
000001b0: 439f b8be a347 b1be fa03 6fbe c3bc 9cbe
000001c0: c56e 28bd ae16 aabe 1666 7fbe a6be 92be
000001d0: bd22 7dbe 8589 cebe 041c 82be 7ecb 88be
000001e0: 9e74 8ebe ee92 9dbe 2a5b 4dbe fed0 54be
000001f0: 40d1 4fbe 0998 84be c091 b9be d4c9 9abe
00000200: b94d 45be fdf9 8cbe 8989 17be bc1b a0be
00000210: edb4 a8be 7ac0 72be 4892 85be cc82 83be
00000220: 5ab5 b1be f391 83be cb54 a6be 948a 4fbe
00000230: f9d0 7fbe ff57 e13c 8934 3dbe 6691 a1be
00000240: 1dbb 77be 1285 96be 0540 07bf 566a 9dbe
00000250: ee4e 8ebe 4dcb 9dbe 5c53 7dbe 83ea debd
00000260: aa86 b6be 9834 a8be 4c2b 53be 197b b5be
00000270: 290c b6be a127 8ebe e116 bdbe 6777 a0be
00000280: cd86 bdbe d139 cebe fde1 9abe e236 c6be
00000290: 063d b1be f243 47be d9ca 9dbe 625e 8ebe
000002a0: f697 83be d7e2 6cbe 984d 82be 662c 69be
000002b0: e2aa a9be 77fb 89be d9f1 a7be 664b a3be
000002c0: bf3c a0be d5d3 98be 7f99 12be 6dc8 afbe
000002d0: a755 95be 1447 82be ad64 89be e464 c3be
000002e0: 3b14 b2be 3344 afbe 85ff 89be db3e 58be
000002f0: 7751 a8be 171c 1abe 855b 78be 8243 b9be
00000300: 50fb dcbe 160c 9cbe df59 b4be 0d3f bebe
00000310: 34ff a6be f8b6 9dbe 1e92 93be d64f 9dbe
00000320: 8013 c4be 7568 6dbe 914f 8dbd ad25 8dbe
00000330: 1c02 b6be 42a3 eabd 8875 f7bd c717 a3be
00000340: b366 99be f83f 41be 1208 ecbe 0c63 8bbe
00000350: 45ea 6cbe 64f3 91be b301 bdbe a7b7 3ebe
00000360: 2c6f 30be 330e b4be 24b4 c7be 5067 43be
00000370: bc82 64be 396e 87be 09f2 aebe 0e54 9cbe
00000380: f27c 78be e046 bfbe 341d 8dbe 83cf a3be
00000390: cd1d 47be d6b1 c1be 8c49 bcbe 8a33 c0be
000003a0: b766 aebe f871 adbe 9a0f a5be 38ab b5be
000003b0: f451 bdbe 764c 92be b2c3 adbe a7c8 99be
000003c0: d61e 90be 676d 9fbe fbcb a2be 7061 86be
000003d0: ed72 87be 6558 29be 9d24 ddbd c42a 52be
000003e0: 37ac 8fbe 14cc 66be 6e43 3fbe 51d5 98bd
000003f0: 833c b4be 11c2 bdbc 86e9 c4be 722d b5be
-0.26973593 -0.36118332 0.40821928 -0.37195736 -0.4642557 -0.3734745 -0.3719211 -0.3337227
-0.30510855 -0.40909773 -0.3366949 -0.15104496 -0.3533429 -0.25985 0.0025520446 -0.26246378
-0.28472522 -0.089586765 -0.2345922 -0.37307927 -0.24647856 -0.2864308 -0.28230795 -0.18677132
-0.1764024 -0.36076736 -0.28340396 -0.22366253 -0.25621644 -0.21855746 -0.27059716 -0.22053559
-0.19744304 -0.31623983 -0.35273153 -0.25389796 -0.31347013 -0.29899123 -0.24474932 -0.22057955
-0.2511628 -0.20658763 -0.30266795 -0.34389374 -0.18691565 -0.294414 -0.29293886 -0.30348715
-0.23150721 -0.18313496 -0.22452553 -0.13852048 -0.21217838 -0.26623484 -0.42308974 -0.3229128
-0.2745991 -0.23069122 -0.11311227 -0.1772316 -0.3971806 -0.11585166 -0.3333665 -0.14478987
-0.34038913 -0.30471513 -0.21641894 -0.24884854 -0.38359478 -0.1401927 -0.22662641 -0.31491742
-0.25243834 -0.35297945 -0.276179 -0.36449465 -0.30551127 -0.17679332 -0.31532237 -0.20340359
-0.24156769 -0.40486747 -0.3257889 -0.2651644 -0.34934342 -0.30163723 -0.12828182 -0.29131117
-0.36732256 -0.28483862 -0.34548616 -0.15475027 -0.30747393 -0.14045887 -0.1083167 -0.24467553
-0.33768037 -0.13037325 -0.3440036 -0.3104108 -0.34554923 -0.38123086 -0.4158752 -0.24888717
-0.2400412 -0.2687966 -0.27404737 -0.26789504 -0.36059007 -0.34624967 -0.2334136 -0.30612764
-0.041121263 -0.33220428 -0.24941286 -0.28661078 -0.24720283 -0.40339294 -0.25412 -0.26717752
-0.27823347 -0.3077616 -0.20054308 -0.20782849 -0.20294666 -0.25897244 -0.3624401 -0.30232108
-0.1926793 -0.27534476 -0.14798559 -0.3127116 -0.32950535 -0.23706236 -0.26088166 -0.25685728
-0.34708673 -0.25697288 -0.32486567 -0.20267707 -0.2498206 0.02750778 -0.18477072 -0.31556243
-0.24192472 -0.293984 -0.5283206 -0.3074519 -0.27794594 -0.3081917 -0.2473883 -0.10884573
-0.35649616 -0.32852626 -0.20621985 -0.3544548 -0.35556152 -0.2776461 -0.36931518 -0.31341097
-0.37016907 -0.40278485 -0.3025054 -0.38713747 -0.3461687 -0.19459513 -0.30818823 -0.27806383
-0.25701874 -0.23133408 -0.25449824 -0.22770843 -0.33138186 -0.26949665 -0.32801703 -0.31893462
-0.31296346 -0.29849115 -0.14316367 -0.343326 -0.2916691 -0.25444853 -0.26834622 -0.3816291
-0.3478106 -0.3423172 -0.26952758 -0.21117727 -0.32874653 -0.15049778 -0.24253662 -0.36184317
-0.43160486 -0.3047797 -0.35224816 -0.3715748 -0.3261658 -0.30803657 -0.28822416 -0.30724972
-0.38296127 -0.23184378 -0.06899942 -0.27567807 -0.35548484 -0.1145692 -0.12082964 -0.31854078
-0.29961166 -0.18872058 -0.46099907 -0.27224004 -0.23136242 -0.28506005 -0.3691536 -0.18624745
-0.17229909 -0.35167083 -0.39004624 -0.1908238 -0.22315496 -0.2645128 -0.34169033 -0.3053288
-0.24266413 -0.3735876 -0.27561343 -0.31994256 -0.19444962 -0.3783099 -0.36774862 -0.3753932
-0.3406274 -0.33876014 -0.32238466 -0.35482192 -0.36976588 -0.2857396 -0.33938366 -0.30035898
-0.28148526 -0.31138155 -0.3179625 -0.26246214 -0.2645487 -0.16537626 -0.10797999 -0.20524126
-0.28061077 -0.22538787 -0.18678066 -0.07462562 -0.35202417 -0.023163827 -0.38459414 -0.35386235

dr1.bn.running_mean f4 [256]
00000000: 5b33 433e 1507 023e a8eb f8bd 4a6b 9b3d
00000010: a305 4dbd 1655 2cbd 6622 c8bc 025d 013e
00000020: ee7d 98bd 44cb 2bbe b44f 39be c4de 59be
00000030: bb14 8dbd a424 07bd 6bf1 a9be a2a4 3b3d
00000040: e8fe bdbd 3a0e aa3e 356e f8bb bf97 ca3c
00000050: 00b4 95be 0cb1 fabd b392 94bd 9ef9 733e
00000060: c597 9ebe f568 69be f09e 11be 16af bebb
00000070: d265 71bd 5c8d d7bd 4cfc 80bd e708 e2bd
00000080: ef5f 27be 0017 e1bd 0478 7cbc f59d cebd
00000090: 8871 47be b41d f13d aea8 8e3d 540c 363c
000000a0: 1dfe 72bc 9612 17be 93eb 60bc d047 2cbc
000000b0: b415 bb3d b705 bcbe 47b7 28bd 7fd2 1dbe
000000c0: 6a51 eebd 7e13 a73d d8e0 5e3e 47d6 6fbd
000000d0: 24ec f5bc 7646 ca3d 43f1 39be 3ed9 153d
000000e0: 4ada 3e3d d249 88bd 05f4 ad3d 0203 70bc
000000f0: 20e3 40be d4cf 9d3c 18ef 6abd d61e 6bbe
00000100: 8fd9 0fbe 1ce9 94bc 78ca a8bd 678d 2c3e
00000110: 8049 26be ccac 443e 017a 07be 258b f9bd
00000120: 3369 86bd dde9 1ebe 38ec 2d3e 1f73 9ebe
00000130: 9907 5bbd b0d9 253e 3b89 dd3c ff2d a33d
00000140: 82a8 d33d 7130 84bd 7fc8 7a3c 68dc e1bd
00000150: 663f 87bc 2108 49be 9f0a bd3d ed66 57bd
00000160: bbdd 8fbe b093 bd3b b96d 52be 02f3 b7be
00000170: 0225 babe b168 bfbc eade 8cbd bbfe e53d
00000180: 0cfd 19be 7014 2f3e 1449 d63c 97b4 523e
00000190: 8e20 2bbd c868 7cbd 1a16 a4bd 6c42 a93d
000001a0: 67d6 1bbe e620 373d e6eb d8bd 3e39 49be
000001b0: 8817 98bd 0a9c 933d d0c4 043e b5a1 65bd
000001c0: 7b0a 76bd 3cf2 953d 5da9 05be 0c70 893c
000001d0: 19e7 253e 90bc 3abe 9185 5c3c bb13 0bbe
000001e0: ad32 4b3d 82c5 ecbc 80e0 0d3e b29a edbd
000001f0: ac2d cdbd 6894 d53c 29f4 f83d 3ac5 7ebd
00000200: a4f5 cbbd 69ce bbbd 9704 ae3d 0425 62be
00000210: c058 883b 7e95 57bd 50c0 49be 4add 81bd
00000220: 0481 8bbd 20f2 4b3e eb98 07be 8979 2e3e
00000230: 5bc6 aabc 25a3 733c 27db 9cbd 4a24 bcbc
00000240: b5cb 81bc da56 99bd 7832 d1bb 3ccd 22bc
00000250: f4a0 45be 005a aebc ace6 b5bc 6ce1 a53c
00000260: bf35 afbd 7814 fa3d 4162 373e f46d c7bc
00000270: 10be 823c baa1 ccbe 7638 b6bd 464b ac3d
00000280: fad6 aabe b0f1 4cbe 926c 05be c7b3 28be
00000290: 52de b1bc 1bfa 663e b0e2 2a3e 266c 873d
000002a0: 856d 523e 99f8 74be 9f19 86bd e52a 90be
000002b0: b8be 41be f37b 03bc 278b 263e 10ca d9bd
000002c0: 7907 643c d1fc d53c 8860 f63b d0b2 aabd
000002d0: ce50 3fbe 1e0f 8f3d 1847 9abe 9c99 55bd
000002e0: 5031 c9bb b2bb 4cbc 9084 81bd 9c53 fbbd
000002f0: 9ce4 b43c 073c e1bd 70d6 623d 7ba2 b3bd
00000300: 9640 eebd 9e87 d9bd 7ac4 1fbe 336d 6ebe
00000310: 9a2d 16bd 498f 283e ae5c 1b3e d359 80be
00000320: ed54 5d3d cc77 8abc 925f 01bf 8c19 aebc
00000330: b931 80be e693 7a3e de1f 923e 1d15 f6bd
00000340: 0a58 26be 34a3 a03c 346b e13d 9f0e acbd
00000350: 4f33 8f3d 0cde 9b3d b033 10be 993f 5ebd
00000360: 7b8e d33d e703 623d e6a1 f13d 3034 40be
00000370: b4ec b6bc dc49 dc3d 0616 75bd 44c1 1b3e
00000380: 95fa 2c3e 458e a73d 9974 8f3d 82f0 e0bc
00000390: fa80 9ebe 18ea a8bd 2ea2 fabc 7a90 29be
000003a0: 30ec 4bbe ea20 dfbd dce3 29be 2eae 183d
000003b0: d8d7 76b8 33ba 0cbe 8198 65be 8e7d 1ebe
000003c0: 3869 b63d 5478 02bc bbb4 adbc 587d 30bd
000003d0: 5235 343e 1ce3 01bd 0414 bf3d b8e4 2abd
000003e0: a011 19bd c8b3 1c3e b636 94be 941e 07bd
000003f0: c1dc 14be 685b 19be 5d11 2abe 6e70 6d3c
0.1906256 0.12698014 -0.12154323 0.07588823 -0.050054204 -0.04207333 -0.024430465 0.12633136
-0.07445894 -0.16776758 -0.1809681 -0.21276385 -0.0688872 -0.032993928 -0.33192 0.045811303
-0.09277135 0.3321398 -0.007581497 0.024730561 -0.29238892 -0.122408 -0.07254543 0.2382569
-0.30975166 -0.22793944 -0.14220786 -0.0058192117 -0.058934994 -0.10525009 -0.06298122 -0.11036854
-0.1634519 -0.10990715 -0.015409473 -0.10088722 -0.19476902 0.117732435 0.06965767 0.011111338
-0.014831093 -0.14753184 -0.01372804 -0.010515168 0.09134999 -0.3672311 -0.041190412 -0.15412329
-0.11636622 0.08158015 0.21765459 -0.05855396 -0.030019827 0.098767206 -0.1815844 0.03658413
0.046594895 -0.06654705 0.08493809 -0.014649155 -0.18836641 0.01926414 -0.057356924 -0.22960982
-0.14047836 -0.018177561 -0.08241743 0.16850816 -0.16238976 0.19206542 -0.13230135 -0.12184743
-0.06563034 -0.155189 0.16984642 -0.30947205 -0.053474043 0.16196322 0.027042976 0.079677574
0.10334875 -0.06454552 0.015306591 -0.11028367 -0.016509723 -0.19632007 0.092305414 -0.052588392
-0.28098854 0.005785428 -0.20549668 -0.35927588 -0.3635636 -0.02336535 -0.06878455 0.112302266
-0.15037936 0.1709764 0.026157893 0.20576702 -0.041779093 -0.061623365 -0.08012028 0.08264622
-0.15218507 0.04470911 -0.10591869 -0.19650742 -0.07426363 0.072074965 0.12965703 -0.05606242
-0.06006859 0.07321593 -0.13052888 0.01677706 0.16201438 -0.18235993 0.013459579 -0.13581745
0.049608875 -0.028902773 0.13855171 -0.116017714 -0.10018477 0.026071742 0.12155945 -0.06219981
-0.099589616 -0.09170229 0.08496969 -0.22084433 0.0041609704 -0.0526328 -0.19702268 -0.06341036
-0.06811717 0.19916582 -0.13241927 0.1703855 -0.020846536 0.01487044 -0.076589875 -0.022966523
-0.015844205 -0.07487269 -0.00638419 -0.009936627 -0.1929968 -0.02128315 -0.02220472 0.020249091
-0.08555173 0.12210935 0.17908575 -0.024344422 0.01595977 -0.39967138 -0.08897488 0.08412795
-0.3336714 -0.20014071 -0.13029698 -0.1647483 -0.021712456 0.22556345 0.16688037 0.066124246
0.20549591 -0.23922957 -0.065478556 -0.28157726 -0.1892041 -0.008025157 0.1626402 -0.106342435
0.013917797 0.026121529 0.0075188316 -0.08334887 -0.18683168 0.06985305 -0.30132365 -0.052148446
-0.0061399117 -0.012495922 -0.063241124 -0.122718066 0.022081666 -0.109977774 0.055380285 -0.08771225
-0.116334125 -0.1062157 -0.15602294 -0.23283844 -0.036664583 0.16460909 0.15172073 -0.2506853
0.05403607 -0.016902827 -0.50536454 -0.021252416 -0.25037935 0.24470481 0.28539938 -0.12015746
-0.16244522 0.019609071 0.110067755 -0.08401226 0.06992208 0.076107115 -0.14082217 -0.05425987
0.1032991 0.055179503 0.11798458 -0.18769908 -0.022329666 0.10756275 -0.059835456 0.15210444
0.16892464 0.08181433 0.07004661 -0.027458433 -0.30957776 -0.08247775 -0.030594911 -0.1655902
-0.19914317 -0.1089495 -0.16590828 0.037275486 -5.885199e-05 -0.13742904 -0.22421457 -0.15477583
0.08906788 -0.007963259 -0.021204343 -0.043088287 0.17598465 -0.03171073 0.093299896 -0.04172203
-0.037370324 0.15302956 -0.2894799 -0.032988146 -0.14537336 -0.14976275 -0.16608186 0.014492137

dr1.bn.running_var f4 [256]
00000000: d904 8140 3b74 2a40 a002 cc40 bfdb 4f40
00000010: 64e8 3c40 f577 3f40 eae5 4240 430a 6c40
00000020: 3975 3140 52bd 2240 4e72 2440 946d 5c40
00000030: da7a 5a40 be27 2f40 340e ad40 5075 8540
00000040: 727c 4140 4180 9d40 3910 3e40 df54 2f40
00000050: a4dd 0d40 d7b1 6240 56a8 3d40 ae6f 6040
00000060: f6d3 3140 8c39 0d40 391d 1240 9ef2 5640
00000070: 6e3c 3b40 f612 3d40 a338 3840 043a 6340
00000080: acbe 3040 650f 2c40 9868 3a40 0900 0c40
00000090: 2ede 6940 7ecf 2d40 5882 1140 1d24 2a40
000000a0: 9d2f 3a40 ab69 0240 e1d0 1a40 a416 5340
000000b0: 1bbc 4540 927f 1740 f87f 4340 edf6 2540
000000c0: d437 2040 0d44 5540 5bf3 5040 6b63 8540
000000d0: f9da 3b40 f7e2 5240 1553 4d40 dd8a 2540
000000e0: a2ad 4040 08d5 6a40 fcb5 7d40 909e 3c40
000000f0: 971c 3f40 a794 4340 e015 5840 7740 7d40
00000100: 2152 4b40 f419 5340 64ef 0840 edf9 0440
00000110: 599a 3d40 fef6 3840 c989 2d40 9fa9 4440
00000120: fb38 2840 ac13 3240 5378 5140 52d2 3e40
00000130: 567c 5a40 6c0f 5540 cb83 2940 1d83 2c40
00000140: bae5 2340 6327 3c40 0026 fc3f 5e23 3540
00000150: bc9e 3640 2125 5240 e95d 6140 385f 4340
00000160: 5cbc 6c40 8ae8 0540 e821 dc3f 9c99 5740
00000170: 2237 8840 c0c9 8940 7200 9640 1961 4940
00000180: ba6d 4140 f84a 9740 b911 5840 2ddb 6040
00000190: 2901 6540 42c3 2740 fcf6 9140 83ca 5240
000001a0: 8d82 4540 932e 5740 e077 8140 e815 5f40
000001b0: ea5a 1240 edd2 5940 0035 fe3f 614e 5f40
000001c0: c10b c740 cae4 3940 56e8 1c40 d5aa 7240
000001d0: 51c7 2840 70d8 8940 6349 5740 aabe 2840
000001e0: b216 9940 fab1 1a40 dd53 0d40 e652 5040
000001f0: 6880 8340 bfbc 3e40 b96d 3b40 486b ad40
00000200: 08ae 5040 3a46 5340 fd31 4140 7cca 1040
00000210: ee0f 4f40 d7d2 0740 0cbb 2940 a712 4b40
00000220: 085b 1140 637f 3b40 a52d 4a40 4b22 8740
00000230: 91f7 3b40 8eed 6840 b447 3940 9106 6240
00000240: 2c4e 6340 1884 2a40 e337 3040 4c7d 6340
00000250: f5fd 4d40 fcf7 5040 adfe 3a40 66fa 7040
00000260: 2c61 3b40 f76f 1140 b0a8 5340 87a1 5f40
00000270: bdfb 7140 1c23 6e40 5780 2640 8b85 6a40
00000280: 30ea 4e40 1aa3 2d40 eba9 2040 a2ff 2d40
00000290: 2bbd 3e40 de50 3e40 107a 5c40 0893 0a40
000002a0: ac37 4340 811b d540 3f49 4440 2533 3c40
000002b0: 0a0e 2e40 8eac 0a40 29fb 5740 7a81 4440
000002c0: 150c 0d40 763a 8240 e6e8 7340 71ff 5440
000002d0: 63b0 7140 6241 6740 f6ad 9940 6102 2040
000002e0: ff72 9040 2a18 1340 36a7 4040 1914 b940
000002f0: ca2c 3640 42cf bb40 9c47 9e40 a1de 3d40
00000300: cf3c 5d40 a7bd 4e40 8557 5d40 f365 7b40
00000310: 81a8 4440 220d e03f ecac 7040 5e03 1240
00000320: 38b5 1940 b533 3240 53e7 8640 e42f 0040
00000330: c54e a340 119c 4f40 ca52 6240 e4f8 0d40
00000340: 48c7 1640 fbf1 7e40 bfdc 3c40 504d 2540
00000350: 1c1d 2440 3b0e 5640 4a6e 4940 a88d 4940
00000360: 5271 1240 3882 6a40 fc9b 2c40 bd9a b640
00000370: f8d2 6440 bce2 a440 64d5 4440 3bcd 6940
00000380: 66ba 4e40 ee32 6e40 08f2 4040 9c91 3d40
00000390: 3ae8 d640 9148 3040 1404 5140 677f 3c40
000003a0: b8da 5d40 c4e0 1f40 1a26 3040 e071 8540
000003b0: b98e 2c40 8941 0b40 e21c 4b40 3f58 2140
000003c0: 8fa4 4740 57a3 4740 4360 2a40 9c1e d740
000003d0: aa95 5840 8637 6540 0651 6740 54a0 4f40
000003e0: c0df 3640 a77d 6740 9841 1241 d64e 3f40
000003f0: b91c 0940 37fe 7640 72ee 5940 0cdd 2040
4.0318418 2.6633441 6.3753204 3.2477872 2.951684 2.9916966 3.0452828 3.6881263
2.7727797 2.5428052 2.5694766 3.444188 3.4137483 2.7368007 5.407984 4.1705704
3.0232205 4.921906 2.9697402 2.7395551 2.2166529 3.5421045 2.9633994 3.5068164
2.778562 2.2066374 2.2830336 3.3585582 2.9255633 2.9542823 2.8784568 3.550416
2.7616377 2.6884396 2.912634 2.1875021 3.6541858 2.7157893 2.2735806 2.6584542
2.909156 2.0376995 2.418999 3.2982569 3.089606 2.3671613 3.0546856 2.5931962
2.5034075 3.3322785 3.2648532 4.168386 2.93524 3.2951028 3.208196 2.5866005
3.0105977 3.6692524 3.9642324 2.947178 2.98612 3.055948 3.3763351 3.9570596
3.1768878 3.298459 2.1396112 2.0777543 2.9625456 2.8900752 2.7115347 3.0728528
2.6284778 2.7824507 3.272969 2.981587 3.4138389 3.3290663 2.648669 2.6955025
2.5608964 2.939904 1.9699097 2.8302836 2.8534384 3.2835162 3.5213568 3.0526867
3.6989965 2.092318 1.7197847 3.3687506 4.25673 4.3058777 4.6875544 3.1465514
3.0223222 4.7279015 3.3760817 3.5133774 3.5781958 2.6212926 4.5613995 3.2936103
3.0860932 3.3622177 4.045883 3.485712 2.286799 3.403499 1.9859924 3.4891589
6.220185 2.9045892 2.4516807 3.7916768 2.6371653 4.3076706 3.3638542 2.6366372
4.7840204 2.4171128 2.2082436 3.2550597 4.1094246 2.9802701 2.928572 5.419346
3.260622 3.3011613 3.018676 2.2623587 3.2353473 2.1222436 2.6520414 3.1730134
2.271181 2.92965 3.159036 4.222936 2.9369853 3.6394992 2.8950014 3.5316508
3.5516462 2.6643124 2.753411 3.5545225 3.2186253 3.2651358 2.9217942 3.765283
2.927806 2.2724588 3.3071709 3.4942338 3.78099 3.720893 2.6015832 3.6644008
3.2330437 2.71308 2.510371 2.7187276 2.980296 2.9736857 3.44495 2.165224
3.050273 6.6596074 3.0669706 2.9406216 2.7196069 2.166782 3.3747046 3.0704026
2.2038624 4.0696363 3.81109 3.328091 3.7763908 3.6133657 4.8024855 2.5001452
4.5140376 2.2983499 3.0102057 5.7837033 2.8464837 5.86905 4.9462414 2.9667132
3.4568365 3.2303255 3.4584668 3.9280975 3.0727847 1.7504008 3.7605543 2.2814555
2.4016857 2.784406 4.215738 2.002923 5.1033654 3.2439005 3.536303 2.218316
2.3559132 3.9835193 2.9509733 2.5828438 2.5642767 3.3446186 3.1473565 3.149271
2.2881665 3.664198 2.6970205 5.706389 3.5753765 5.1526775 3.0755243 3.6531513
3.2301269 3.7218585 3.0147724 2.9620123 6.715848 2.754429 3.265874 2.945276
3.4664745 2.4980936 2.7523255 4.1701508 2.696211 2.175875 3.1736379 2.521011
3.1194189 3.1193445 2.6621253 6.7224865 3.3841348 3.581514 3.6143203 3.2441607
2.8574066 3.6170442 9.141014 2.9891868 2.142378 3.859266 3.4051785 2.5134916

sp1.tau f4 [256]
00000000: 51ea b1bd f089 0abc bd46 123f 1091 80bc
00000010: 81c0 34bd e8a4 56bd c824 2dbd 6833 aa3e
00000020: e646 86bd 9190 08bd 96b5 c1bc 5186 983e
00000030: 528c 13bd a78e fbbc 1eba 0e3f 0b18 2dbd
00000040: 24a5 fbbc 97b2 393e d398 4abd 579d debc
00000050: d4e0 f6bc 331b 2abd b678 c5bc 77b7 2fbc
00000060: 4c83 1e3d 3dec 62bc 8aa8 36bd 7d48 4a3e
00000070: c006 b4bd 8380 55bc 3e35 e53e 3a6b ebbc
00000080: 9e2d ab3e 8afc 14bd aac7 643e 90bf 543e
00000090: fd12 82bd c6ad 6fbc 5c4f 3abc bdfb 5d3d
000000a0: 61d7 d3bc 753b 8bbc 844a d9bc 2d08 2dbc
000000b0: e5ac 3fbd 6959 813e 0d9f 5fbd 762c 41bc
000000c0: 1696 adbc 096a 94bc 8689 0fbd 3449 c93d
000000d0: f92e d9bc 6d6e 97bb 3fdf 43bc 207f bcbc
000000e0: b082 33bd 1e0a 6d3d 133f 5a3e e391 86bc
000000f0: 37a0 61bd a748 ae3a 813d e63c 70ff 8a3e
00000100: b92c 27bd 790a c5bc 1167 b5bc d52e 5b3c
00000110: a34a 2abd 0c39 793e 0d13 dc3d d610 73bd
00000120: a9d5 3cbd 7442 0d3e d8f2 e9bc 70fd c8bc
00000130: ab79 e1bc 5b1e 7bbc 777f 953e 8ea9 ffbc
00000140: 8736 9a3d dd87 bcbc af21 5a3e d8de d4bc
00000150: b109 a3bc bfb6 6dbc 50c5 cd3e 6228 b2bc
00000160: 1ea3 0dbd 8a29 a9bc 75f6 d5bc 87e2 1abd
00000170: 0e7f 9ebd c705 5c3d 4149 a93e c19c 633d
00000180: 0467 11bd f573 a83e d5c9 a8bc 313a a9bc
00000190: a1ca 7bbd 57c1 c3bc 1d0f 51bd 436a 31bc
000001a0: 7421 613d 3635 f9bc 4807 51bd 0cd2 f3bc
000001b0: 2452 cbbc b5a0 d5bc 4c58 293c 51e9 fd3d
000001c0: 0a29 063e 9203 44bc b897 96bc 17e6 c6bc
000001d0: 28d1 62bd f7d3 81bd b689 a2bc 54ef 1c3e
000001e0: 91c8 33bd 8cc0 bdbc ea76 b4bc 76f9 f93c
000001f0: 6962 603f 97ad 76bc 9882 17bd 930d cbbc
00000200: 9120 063e e1bc 57bc 5d25 463e de35 cdbb
00000210: 60f5 1bbd 8216 acbc 850a dcbc 1c37 2f3e
00000220: 3879 0bbd 849d 04bd 5cf7 11bd 0617 873d
00000230: ecc4 863e c79e 963d b6b8 77bc c9a3 08bd
00000240: 7eda 5ebd aa1c f5bc 322f 4bbd 535a 57bd
00000250: 9bff c3bc 8372 73bd fbe3 20bd c5a2 a3bc
00000260: ff2b 9abc 394f 9abc 6b71 d1bc 4906 23bd
00000270: 9d47 1fbd 7dda 58bd 24f4 0d3d 8e02 23bc
00000280: 1ac6 13bd 9f33 77bd ad8e e33d 3ea8 efbc
00000290: ecee d2bc fba2 37bd 79ff bebc 4bf1 64bc
000002a0: e0a2 3fbd 2d5b 633f a703 e1bc 4091 99bc
000002b0: 141b ffbc 9cd2 95bc 6300 25bd fe80 51bc
000002c0: 994b 81bc 8606 87bc 5868 673e 2909 50bd
000002d0: f62b afbd 7324 b03d 01ff 963e de68 ae3e
000002e0: c72e dbbd dc09 92bc 011a 0ebd de23 fe3e
000002f0: a411 113e fc97 1c3e a407 d3bc f399 fcbc
00000300: 2abf 43bd 9bc1 20bd dcc0 55bd 19c7 59bd
00000310: 119b 55bd d070 7539 25a2 19bd 7272 723e
00000320: 5b41 6e3e fed1 21bd 45e0 be3e 14c6 eebc
00000330: 4de6 29bc dd8f acbc bbfe 763e e3f1 73bd
00000340: 372b 74bc 7ce6 0d3f 2caf 7dbc 03b5 a13d
00000350: db7c a23e 3485 b0bd e357 81bc 92fd 97bd
00000360: 5f96 58bc 026f 60bc f65c 23bd 35f0 993e
00000370: cd1e bdbd 9246 193e 097c 8cbd 5e43 c0bc
00000380: edfc 2abd 7210 3abd cf6d 9bbc 4830 e93c
00000390: d254 713f d5c8 42bd 76c4 63bd 7245 64bd
000003a0: e615 07bd 7ee6 dfbc f4bb 263d 97e8 323e
000003b0: ca6a e3bc e65a b93d 5134 493e 0a43 343e
000003c0: 44b4 44bd 30b0 ddbc 531a 593e 1225 e73e
000003d0: 7b47 2bbd 62ef 03bd 860e 58bd 0282 533e
000003e0: 3337 f5bc ac58 38bc c9c0 603f 9ea5 c03e
000003f0: 0bd1 4bbd dfc7 893e e96f 08bd de31 28bd
-0.086872704 -0.008455738 0.5713919 -0.015694171 -0.0441289 -0.05240336 -0.042271405 0.33242345
-0.065564916 -0.033340994 -0.023646157 0.29789975 -0.03602249 -0.03070767 0.5575274 -0.042259257
-0.030718394 0.18134533 -0.04946215 -0.027174635 -0.030136503 -0.041529845 -0.024105411 -0.010724894
0.038699433 -0.013850269 -0.044594325 0.19754215 -0.0879035 -0.013031128 0.44767183 -0.028737653
0.3343324 -0.036373653 0.22341791 0.207762 -0.06351278 -0.014628833 -0.01137146 0.054195154
-0.025859537 -0.016996125 -0.02652479 -0.010561031 -0.046795744 0.25263527 -0.054595042 -0.0117903855
-0.02118973 -0.018116968 -0.035043262 0.098284155 -0.026511656 -0.004621318 -0.0119550815 -0.023009837
-0.043825805 0.057870977 0.21313123 -0.016426986 -0.055084433 0.0013296799 0.0281055 0.27148008
-0.040814135 -0.024052845 -0.022143872 0.013377865 -0.041575085 0.24338168 0.10745821 -0.059342228
-0.0461022 0.13794881 -0.02855818 -0.02453491 -0.027523836 -0.0153270615 0.2919881 -0.03120878
0.075299315 -0.023014003 0.21301912 -0.025985166 -0.019902082 -0.014508902 0.401896 -0.021747772
-0.03457939 -0.02064969 -0.026118496 -0.03781369 -0.077390775 0.053716447 0.330637 0.055569414
-0.035498634 0.32900968 -0.020604054 -0.02065763 -0.06147254 -0.023895903 -0.051039804 -0.010828557
0.054963544 -0.03042088 -0.051032335 -0.029763244 -0.024819441 -0.026077608 0.010335993 0.12398017
0.13101593 -0.011963742 -0.018382892 -0.024279637 -0.05537525 -0.06339257 -0.019841056 0.15325671
-0.043892447 -0.023163103 -0.022029359 0.03051446 0.8765016 -0.0150560355 -0.03698978 -0.024786746
0.1309836 -0.013167591 0.1935019 -0.006262525 -0.038075805 -0.021006826 -0.026860485 0.17110866
-0.03405115 -0.03237678 -0.03563629 0.06596188 0.26322114 0.07354503 -0.015119722 -0.033359323
-0.05440759 -0.029920895 -0.049605556 -0.052576374 -0.023925593 -0.05943538 -0.03927992 -0.019975075
-0.018819807 -0.018836604 -0.025566777 -0.039800916 -0.038886655 -0.05294274 0.03465666 -0.00994934
-0.036077596 -0.060351964 0.111111976 -0.029255029 -0.025748692 -0.044833165 -0.023315178 -0.013973544
-0.04678619 0.88811 -0.027467562 -0.018746018 -0.031140842 -0.018288903 -0.040283572 -0.012787102
-0.015783118 -0.016482603 0.22598398 -0.050789986 -0.08553307 0.08600702 0.29491428 0.34064382
-0.107022814 -0.017826967 -0.034692768 0.4963674 0.14166886 0.15292352 -0.02576048 -0.030835127
-0.04778973 -0.039247137 -0.05218588 -0.05316839 -0.052149836 0.00023407047 -0.03750815 0.2367647
0.23267119 -0.039506905 0.3728048 -0.029147185 -0.010369849 -0.021064693 0.2412061 -0.059556853
-0.014902881 0.55429816 -0.015483659 0.07895853 0.31735882 -0.086191565 -0.015788978 -0.074214116
-0.013219445 -0.013698341 -0.039883576 0.30066076 -0.092343904 0.14968327 -0.06859595 -0.023469623
-0.041745115 -0.04542584 -0.01897326 0.028465405 0.9427005 -0.04755481 -0.05560728 -0.05573029
-0.03297987 -0.027331587 0.04070659 0.17471538 -0.027760882 0.090505406 0.19648863 0.17603698
-0.048023477 -0.027061552 0.21201448 0.4514547 -0.041816216 -0.032210715 -0.052748226 0.20655063
-0.029933548 -0.01125161 0.87794167 0.37626356 -0.049759906 0.26910302 -0.03330985 -0.041063182

fc2.layer.weight f4 [256, 256]
00000000: b03f b4bc f4ff 3abd 089b 3b3d 729d 30bd
00000010: d406 723d 20e2 103d 9aa3 68bd 12a1 123d
00000020: 9075 a6bc 98f2 653c 5408 75bd f85c 6a3c
00000030: 467d 2abd 8054 37bd d07f 9fbb 166c 323d
00000040: 1435 fbbc 40fa 003c ded6 763d 34c5 b23c
00000050: 402b b3ba a241 52bd d075 e7bb 5867 7bbd
00000060: dc57 103d 00ee 64ba 1c61 dabc 7a31 2bbd
00000070: 3cfc cabc 4cb9 af3c 46be 2ebd 9685 393d
00000080: bcb0 c33c 4c13 a23c 1ec9 223d 802d eaba
00000090: 42e5 7d3d 9459 c53c 42f5 5dbd 8288 163d
000000a0: 803a 803b ec7a 5b3d fc4c 843c 8856 483d
000000b0: b4c2 843c e4bf 9d3c dc9e cc3c 0c28 bc3c
000000c0: e892 433d 80f1 45bc 9cb6 eebc b0bf 58bc
000000d0: 0874 1a3c 98d3 0f3c 9cef 00bd a035 073b
000000e0: 8813 03bc 0097 c2bc 10b0 493d 5818 153d
000000f0: a05b 4abb 0659 21bd 66c4 67bd 9e3c 65bd
00000100: 0e1c 053d 2814 e73c 9853 dc3c f049 2abd
00000110: 1cd4 8d3c 3e8c 0f3d 4038 e23b 1e30 49bd
00000120: 767c 0f3d fc7f cfbc 80d5 9a3a b87d d43c
00000130: f059 15bc d84c c73c a826 dabc f886 743c
00000140: d4f7 023d 0029 9fbb 9081 37bd 4c78 12bd
00000150: 0c69 c33c f09e b73c 941c b6bc 0841 833c
00000160: 3062 26bc 2cdf e23c 6e38 60bd 62cf 0c3d
00000170: 545d 33bd e86b 173c 4839 943c d8c0 f5bc
00000180: a014 6d3d 4af8 123d 00f2 1eb9 6eaf 7cbd
00000190: e419 473d 40e2 14bb a0b5 89bc f035 3abc
000001a0: c0ce 0f3d 4017 253d 389c 0fbd f458 a2bc
000001b0: 509d 483d 805b 61ba 269e 66bd 40d1 41bb
000001c0: e2a1 22bd 0256 16bd de2a 643d a07f 5abb
000001d0: 5e89 08bd 48bd b5bc dce0 a0bc 300d 823c
000001e0: 74f1 a03c 7c54 6d3d 1447 b33c b2e1 1a3d
000001f0: e415 db3c 747c 62bd ec36 e23c 5482 f93c
00000200: 68ba 2cbd c493 493d 8676 5dbd aa46 003d
00000210: 4415 ba3c 7c7f 133d 0e7b 12bd 5618 503d
00000220: 3e00 623d 5080 463d f0c1 693d f821 d2bc
00000230: c606 743d 7685 733d 56cf 7d3d 5015 33bd
00000240: b00e c93b 840e 3f3d f862 753d 5426 803c
00000250: b0e8 6a3d bade 68bd 981c d8bc bcca 76bd
00000260: e018 17bd 0e8c 703d a8b0 773d c0e6 7abd
00000270: 0cc8 b63c 200c 10bd b82f 27bd 7428 2e3d
00000280: 2cbd b13c 8497 22bd f0cf 34bd 74a7 a73c
00000290: d6f1 2e3d d814 583d 5497 f3bc f0eb 73bc
000002a0: 0061 25bb aacc 553d ce37 2abd 0ae6 4ebd
000002b0: 3aa9 1e3d fc19 323d c852 2a3d a072 75bb
000002c0: 10f4 573c d075 ee3c f87b b1bc 6078 1fbc
000002d0: 7025 09bd a406 0dbd 607e 633c 5666 1c3d
000002e0: c0e3 a13b a8c5 003c c6b7 733d cc09 82bc
000002f0: d617 133d d0a2 38bc 4eee 1a3d 883f f5bc
00000300: 501b 9a3b a4e6 1a3d 0ccb fdbc e4a0 c43c
00000310: 60fb 703b b0b4 23bd ba1a 0fbd 6084 b2bb
00000320: 9c06 3cbd 78f2 5f3c b090 d93b e41b 00bd
00000330: a0bb 8e3b 28a2 553d 96fc 1bbd 5861 3c3c
00000340: 64f0 e8bc 1c8e de3c b686 503d 5428 77bd
00000350: 5845 ff3c 60e1 1f3b 7c13 5abd 40a0 a53b
00000360: 3863 b23c 16bb 76bd 747a 213d 686e c2bc
00000370: c6ea 3fbd d4da 45bd ae02 123d 187e 72bc
00000380: 3c17 bb3c 88aa fb3c e02f 763c f094 6e3c
00000390: a060 093c b4dd c33c 009b 583d 145e cf3c
000003a0: 1475 d0bc 3265 253d e629 2fbd 34c8 a3bc
000003b0: 9afb 633d ccf6 343d eaad 613d 98ca 7fbd
000003c0: b663 3b3d 7414 81bc ec34 1b3d 147f 3ebd
000003d0: da95 233d 205a f43c d0e5 2abc d2f8 01bd
000003e0: 74c8 91bc 8019 d3bc d6ee 543d b411 ad3c
000003f0: 9a94 42bd 3879 ec3c 5a06 133d ba13 1b3d
-0.022003025 -0.045654252 0.045802146 -0.0431189 0.059088543 0.0353719 -0.056796648 0.03579814
-0.02031973 0.01403489 -0.059822395 0.014304392 -0.041623376 -0.04475832 -0.0048675314 0.04356011
-0.030664958 0.007872164 0.060263507 0.02182255 -0.0013669506 -0.051332124 -0.007063605 -0.061377853
0.03524004 -0.00087329745 -0.026657633 -0.04179523 -0.024778478 0.021450661 -0.042661928 0.045293413
0.023887984 0.019784592 0.03974258 -0.0017866343 0.061986215 0.024090566 -0.054188974 0.036751278
0.0039132237 0.053584024 0.01614999 0.048910648 0.016206123 0.01925654 0.024978094 0.022968315
0.047747523 -0.012081504 -0.02913981 -0.013229296 0.009427078 0.008778475 -0.03147851 0.0020631328
-0.008000262 -0.023753643 0.049240172 0.03640017 -0.0030877367 -0.03939154 -0.056583785 -0.055966012
0.03249746 0.028207853 0.02689533 -0.04157442 0.017313056 0.035045855 0.006903678 -0.049118154
0.035030805 -0.025329582 0.0011812896 0.025938854 -0.009115681 0.024328634 -0.02662976 0.014924757
0.03197463 -0.0048571825 -0.044801295 -0.035759255 0.023853801 0.022414654 -0.022230424 0.01602222
-0.010155246 0.027694307 -0.054741316 0.034377463 -0.043790177 0.009242035 0.01809372 -0.029999182
0.057880998 0.03588132 -0.00015158206 -0.06169074 0.048608676 -0.0022717863 -0.016810238 -0.011365399
0.03510928 0.040305376 -0.03506109 -0.019817807 0.04897815 -0.00085967034 -0.056303166 -0.0029574186
-0.039705165 -0.036703117 0.055704944 -0.003334023 -0.03333413 -0.022184983 -0.019638471 0.015875429
0.019646384 0.0579419 0.021884479 0.037812896 0.026743837 -0.05529447 0.02761408 0.030457653
-0.04216996 0.049213186 -0.05406811 0.03131739 0.022715218 0.03601025 -0.035761885 0.05080446
0.055176012 0.048462212 0.05706972 -0.025650963 0.059576772 0.05945345 0.06196531 -0.043721497
0.006135784 0.046644703 0.059908837 0.015643276 0.057350814 -0.056853034 -0.026380822 -0.060251936
-0.036888957 0.058727317 0.060471207 -0.061255217 0.022312187 -0.035167813 -0.040816993 0.042519048
0.02169665 -0.039695278 -0.044143617 0.02046559 0.0427111 0.052754253 -0.029735245 -0.014887795
-0.0025234818 0.052197136 -0.041557126 -0.05051235 0.038735606 0.043481812 0.041582853 -0.0037452355
0.013180748 0.029108912 -0.021665558 -0.0097332895 -0.03348297 -0.03443016 0.013885111 0.038183533
0.00494048 0.007859625 0.059501432 -0.015873812 0.035911404 -0.011269286 0.03782492 -0.02993752
0.004702963 0.037817612 -0.03098061 0.0240025 0.0036770925 -0.03996724 -0.034937598 -0.0054479092
-0.04590474 0.013668649 0.0066395625 -0.0312766 0.0043558627 0.052156597 -0.03808268 0.011497818
-0.02843494 0.027167372 0.05090972 -0.060341194 0.031160995 0.0024395809 -0.053241238 0.0050545037
0.021775827 -0.060237013 0.03942342 -0.023734286 -0.046854757 -0.048304394 0.035647087 -0.014800571
0.022838227 0.030720964 0.015026063 0.014561877 0.008384854 0.023909427 0.052882195 0.025313415
-0.025446452 0.04037971 -0.042764567 -0.019992925 0.055659868 0.044180676 0.055097498 -0.062449068
0.04574939 -0.015756823 0.037892267 -0.04650791 0.03993783 0.029828131 -0.010430768 -0.031731434
-0.017795779 -0.025768995 0.051985584 0.021126606 -0.047505 0.028866395 0.03589473 0.03786061
