Model/model_801797.pth (torch, 805362 bytes, 27 tensors)

weight f4 [256, 192]
000000 ba 2e a9 bd 54 21 42 bd d1 17 a4 3d 8a 82 b9 3d
       -0.082608655 -0.047395065 0.08012355 0.090581015
000010 1d c5 52 3d 73 e2 70 bd b5 48 3b bb 85 bd 13 bd
       0.051457513 -0.05880971 -0.0028577272 -0.03606941
000020 8b bb 6d bd 97 89 37 be c9 54 87 bc 73 f9 17 be
       -0.058040183 -0.1792358 -0.01651992 -0.14841251
000030 74 6a b0 3d 5b c8 99 bd 8b f4 26 3d c1 1d 07 be
       0.08614054 -0.07508918 0.040760558 -0.13194944
000040 77 f1 15 bd d1 81 aa bc 0d b0 6a be bf 5f a0 3d
       -0.036607232 -0.020813854 -0.2291872 0.07830762
000050 f2 5c e1 bc ea 0b 2c 3e ba cf 7c be a9 ce 10 3c
       -0.02751014 0.1680142 -0.24688616 0.008838334
000060 e4 7b 33 bd 83 96 f3 bc 1e fb 59 bc 8e 58 6b 3d
       -0.043819323 -0.029734856 -0.0133045 0.0574575
000070 fa 6a 7d 3d 90 c2 03 bd a3 2b e2 3b dc eb 8a 3d
       0.0618696 -0.03216797 0.0069021746 0.06783268
000080 8b a4 40 bd b6 32 05 be cb 09 9f 3c d0 1f b0 bb
       -0.04703192 -0.13007626 0.01941385 -0.005374886
000090 86 bd 6e be 7b c5 08 be 93 1b bd bc b4 56 bc bb
       -0.23314485 -0.13356583 -0.023084437 -0.0057476405
0000a0 aa 5a bc 3b 28 38 92 bd b3 e7 3e 3d 73 08 de bd
       0.0057481127 -0.07139617 0.046607684 -0.10841455
0000b0 42 15 9e ba c0 05 78 3c 35 5e 0d bd 6c b3 67 bc
       -0.0012060779 0.01513809 -0.03451367 -0.014141899
0000c0 5f 50 7f bd 93 6b 69 3d ec 80 8d bd 48 98 1c bd
       -0.062332507 0.056987356 -0.069093555 -0.038231164
0000d0 a2 32 49 3c 0b eb 05 3e 0c 11 42 3d 25 c0 83 bd
       0.012280138 0.13077943 0.04737954 -0.06433133
0000e0 39 d2 7d bc 89 2e b3 3c 8d 9d 4d 3d 75 c2 d9 bc
       -0.0154920155 0.021872776 0.05019908 -0.026581982
0000f0 40 6c d5 bc 69 9c 8c 3c d0 2b 8a 3c 13 a7 b8 bd
       -0.026052594 0.017164426 0.016866595 -0.09016242
000100 1f 10 7b bb fe 30 12 bd 8c e3 af bd c5 2a 1e 3d
       -0.003830917 -0.035691254 -0.08588323 0.038615007
000110 88 4a b8 bd 29 25 36 3d e8 fa b1 bc 8d e9 8e bd
       -0.08998591 0.044469032 -0.021726087 -0.0697814
000120 8b 19 81 bc cf 63 8f bc f8 83 f4 3c 2c 99 31 3c
       -0.01575925 -0.017503647 0.029848084 0.010839742
000130 f0 c7 98 3c 53 c2 4c bc 67 e0 dc ba 42 7f dc 3d
       0.018650025 -0.012497502 -0.0016851545 0.1076646
000140 8a b2 29 bd d5 d0 8b bd 23 a6 b6 3c 12 33 0d bd
       -0.041430034 -0.06826941 0.022296017 -0.034472533
000150 28 cf bc 3d 47 5c 80 3d 09 cb ad 3d 15 36 a8 3d
       0.092191994 0.062676005 0.084859915 0.0821344
000160 b9 11 c1 3c 14 82 cf 3d b3 d5 3b 3d c3 6d ba bd
       0.023568021 0.10132232 0.045858096 -0.09102967
000170 a5 20 2f 3c 99 27 d6 3c 77 c7 98 3d 64 60 30 bd
       0.010688935 0.026141929 0.0745992 -0.043060675
000180 2b ed 54 3e f7 cd 22 bb 74 75 9b 3d 3d 89 13 3e
       0.20793597 -0.0024842003 0.07590762 0.14407821
000190 b5 9f 8e 3d ca 83 91 3d 04 da 56 3e 61 c4 fb 3b
       0.069640554 0.07105215 0.20981604 0.0076833223
0001a0 6d 4d 66 bd 48 9c 4f bd 01 c1 dc bc 74 48 e9 39
       -0.056226183 -0.05068615 -0.0269475 0.00044495205
0001b0 e2 31 5b bd f0 17 48 bd ae ba e9 bd fd 06 10 3d
       -0.05351437 -0.048850954 -0.114125594 0.035162915
0001c0 09 70 dc 3c 68 e9 45 3d c3 fd 3c 3d 33 dd 36 3d
       0.026908891 0.048318297 0.046140444 0.044644546
0001d0 5c 5a 93 3c 75 af ce 3c 55 c0 96 3d c4 b8 e6 bc
       0.017987423 0.025230149 0.07360903 -0.028164275
0001e0 fe 61 20 bd 08 f7 8a 3d 2c e5 2c 3a 2d 92 b9 3b
       -0.039155953 0.06785399 0.00065954286 0.0056631775
0001f0 a0 9b 92 bb 97 49 83 3d d4 72 bf 3b fc be a5 3e
       -0.0044741184 0.064105205 0.005842546 0.32372272
000200 a5 2b 27 bd 5a 1d a0 3b 43 59 43 3b 09 3c db bd
       -0.040813107 0.0048863115 0.0029807843 -0.1070481
000210 2b ee b6 3d fa bb 40 3a 33 92 f5 bb 86 02 4d bc
       0.08932146 0.00073522294 -0.007494235 -0.012512809
000220 8c c4 92 3c 5a fb 7f 3d fe 8c f2 bc d9 b1 80 3d
       0.017915986 0.062495567 -0.029608246 0.06283922
000230 e7 a5 77 bd d8 7c df bb ae 92 74 3d 60 d2 62 3d
       -0.06046095 -0.0068203025 0.059710197 0.05537641
000240 72 4a 46 3d 9f a2 cd 3c c7 6a 28 bd 4f 6f 9e bc
       0.04841084 0.025101958 -0.041117456 -0.019340185
000250 08 33 51 bb 30 e3 2a 3d 12 3a 22 bc e3 15 a8 bb
       -0.0031921286 0.04172057 -0.00990154 -0.005129562
000260 7f 3a 63 3b 5c a7 45 3d 5e db 60 bc d1 2c dc 3d
       0.0034672318 0.04825531 -0.013724176 0.107507356
000270 89 fc fb 3d 35 d8 53 3c 6b 3a 0d be fb c7 9d bd
       0.12304027 0.012929966 -0.13791816 -0.07704159
000280 c8 3d ff bc 8c f9 d7 3d 95 0b af 3b 54 64 14 3d
       -0.03115739 0.10545644 0.005341957 0.036228493
000290 6b 7c b6 bd 90 9e e6 bd b7 62 f8 3c 08 da e8 bc
       -0.089104496 -0.11260712 0.030320508 -0.028424278
0002a0 c1 c4 e8 bb 36 52 45 bd 53 26 87 bc 1f e9 a0 3d
       -0.007103533 -0.048174106 -0.016497767 0.07856964
0002b0 5a cb 26 bd cb a6 fb bc 8b b3 93 bd cc 87 a1 bc
       -0.040721275 -0.030719182 -0.072119795 -0.019718073
0002c0 93 9c 5f 3d 63 c1 32 bd d0 af 20 3c 2c 9e 88 bd
       0.05459268 -0.04364146 0.009807542 -0.06670794
0002d0 22 76 2c 3e d8 ba d8 bc cb 1c 93 bd 6d 1d 74 bd
       0.16841939 -0.026456282 -0.07183226 -0.059598375
0002e0 2b 7c 89 be 9a 8e 92 be 3b 8e d4 bd cd 3b 90 be
       -0.26852545 -0.2862442 -0.10378691 -0.28170624
0002f0 a5 fe 00 be 6f ff 51 3e 2c fe db 3d b6 4c 4a be
       -0.12597139 0.20507596 0.10741839 -0.19755825
000300 79 3b dc bd f9 67 59 3d 47 8a 19 bd b5 83 e1 bc
       -0.10753531 0.05307767 -0.037485387 -0.027528623
000310 7c 9e dd 3c e5 d1 97 bd f8 54 15 3d f1 90 b0 bd
       0.02705311 -0.07413081 0.036457986 -0.086213954
000320 02 c2 bf 3d c6 80 c6 bd 0d d4 09 bd 10 6e 2a be
       0.09363176 -0.0969253 -0.033649493 -0.16643548
000330 d7 b3 db bb 36 87 84 be 51 d2 19 bd 10 37 dd bd
       -0.006704788 -0.25884408 -0.03755409 -0.10801518
000340 a8 76 ae 3c 19 6a 64 3c 00 77 05 be 81 e2 d3 3c
       0.021296814 0.013941311 -0.13033676 0.025864841
000350 88 15 9e bd cb cb 3e bd 99 d6 42 bd 4d e9 8f bd
       -0.077189505 -0.04658107 -0.047567938 -0.070269205
000360 b5 4e 39 ba 29 f2 33 3b 04 83 a7 bc fd 79 2a bd
       -0.0007068918 0.002745757 -0.020448215 -0.041620243
000370 02 15 f9 bd a0 7b c4 bd 32 58 88 3c c9 b5 b2 3d
       -0.1216221 -0.09593892 0.016643617 0.08726079
000380 1d 0d 23 bd 65 53 27 3d f8 e6 6b bd 54 eb 01 bd
       -0.039807428 0.040851016 -0.057593316 -0.031718567
000390 35 f5 e8 bc 24 e8 64 3d dc b3 06 be 5b 83 da bd
       -0.028437236 0.05588545 -0.13154548 -0.10669585
0003a0 1d db e7 bb 1d 9f 9d bc cc 06 5e bd 6e 01 48 3b
       -0.007075681 -0.01924091 -0.0542057 0.003051843
0003b0 56 49 5e bc 84 4b e1 3c b3 e3 83 bd 3c 80 60 bd
       -0.013567289 0.027501829 -0.064399146 -0.054809794
0003c0 93 a8 3b 3a a0 f0 68 3d 3e e8 45 bd 9f ef c3 bd
       0.00071586034 0.056870103 -0.048317187 -0.095671885
0003d0 40 e7 e5 bb 56 00 02 3d 3b 60 0b be bb e7 0c bd
       -0.0070160925 0.0317386 -0.13610928 -0.034400683
0003e0 b4 a3 99 bd 9c 24 90 3b 6e 16 ca 3d e4 91 06 bb
       -0.07501927 0.0043988954 0.098675594 -0.0020533735
0003f0 ef b3 fe bc 7d 9b 17 3e af c8 8a 3c d7 34 37 be
       -0.031091658 0.14805408 0.016941397 -0.1789125

bias f4 [256]
000000 94 9c a8 be ab 71 8b bd 3c 98 fb bd 9e 6c 59 be
       -0.3293196 -0.0680879 -0.12284896 -0.2123284
000010 1f 46 59 bd 68 1a 30 be 26 fd 95 be 1d 60 6f be
       -0.05304539 -0.17197573 -0.292947 -0.23376508
000020 52 7f b4 bb 57 2f 6f be 3b 0a e5 bd 9c a3 6c be
       -0.005508342 -0.23357902 -0.11183592 -0.23109287
000030 90 f4 ed be 9b c6 5c be 53 2d 9b bd 16 c9 5b be
       -0.4647565 -0.21560137 -0.07577004 -0.21463427
000040 9e 67 d6 bd b3 bf 03 be 72 4f a7 be 97 22 93 be
       -0.10468982 -0.12866096 -0.326778 -0.28737327
000050 f2 92 16 be 20 93 43 be 91 77 6f be 0b 81 ef bd
       -0.14704493 -0.19099092 -0.23385455 -0.11694535
000060 40 36 ee bd bc 34 3e bd 2d b5 d2 bd 9e ee 9b bd
       -0.11631441 -0.04643701 -0.10288463 -0.07613872
000070 73 0d 44 be cb 59 1b be 5d d5 14 be 0d 85 8f be
       -0.19145755 -0.15170972 -0.14534517 -0.28031197
000080 b8 e9 44 be 73 d0 0e be 06 b0 ae be d2 40 64 be
       -0.19229782 -0.13946705 -0.3411867 -0.22290352
000090 66 78 d9 bd 22 10 3f be 9b c7 4e be 33 26 78 be
       -0.10618667 -0.18658498 -0.20193331 -0.24233322
0000a0 70 71 40 be b9 a6 97 be f7 c2 ff bd b1 86 57 3d
       -0.18793273 -0.29619387 -0.124883585 0.052618686
0000b0 99 a9 d7 be a0 dc d2 bd eb 8c af bd 5b 4a cc be
       -0.4212158 -0.10295987 -0.085718 -0.3990048
0000c0 74 71 89 be e8 6b 80 be 13 3c 01 bf 3f 89 5c be
       -0.2684437 -0.25082326 -0.5048229 -0.2153673
0000d0 1c 78 71 bd 2d 4c 42 be 50 79 6d bc ce b7 4b be
       -0.058952436 -0.18974371 -0.014494255 -0.19894335
0000e0 11 80 c2 be 27 68 1d bf 86 96 8b be 5b d4 ec bd
       -0.37988332 -0.6148705 -0.27263278 -0.11563941
0000f0 d6 d3 a7 be 2b ee 28 bd 2d 9e 8a bd ed 57 1a be
       -0.32778805 -0.04124276 -0.06768451 -0.15072604
000100 6f 25 02 bd 60 cf 44 bc b9 43 7d be f8 0c 8d bd
       -0.03177398 -0.012012333 -0.24732865 -0.06887239
000110 f3 f2 be bd 22 06 62 bd c9 ad 3e 3d 17 77 a2 be
       -0.09323683 -0.05518163 0.046552453 -0.31731483
000120 8d a3 3b 3b 6d 01 fd bd 40 94 a4 3d 7a 79 c3 3c
       0.002863142 -0.123537876 0.08036089 0.023861635
000130 96 89 fe bd 2b f3 1a be 78 dd 6f be f8 f8 7c 3d
       -0.12428586 -0.15131824 -0.23424327 0.061760873
000140 31 23 18 be dc 9e 77 be 7d 6a e7 be 3f 4a cf bd
       -0.14857174 -0.24181694 -0.45198432 -0.10121583
000150 05 eb 3b be 80 27 fa b9 ef fb 3f be a3 84 33 bd
       -0.18351372 -0.00047713146 -0.18748449 -0.043827664
000160 83 29 ff bd 51 83 3c be cd 07 96 be 2b 42 11 be
       -0.124590896 -0.18409468 -0.29302827 -0.14185397
000170 fb 7a 13 bd 94 60 54 be b4 52 10 be 1e 5e 0a 3e
       -0.036005955 -0.20739967 -0.14094049 0.13512465
000180 34 60 55 be 2f 04 66 be f0 08 a9 be ec 8d 02 be
       -0.2083748 -0.22462533 -0.3301463 -0.12749451
000190 2b 0d 2a be bf ed 63 be 99 2d 28 bd bf db 93 be
       -0.16606586 -0.22258662 -0.04105911 -0.2887859
0001a0 f8 bf 89 3d 09 bd df bd 3c 8e 82 bd 0f 42 45 bf
       0.06726068 -0.109247275 -0.06374785 -0.7705392
0001b0 f7 72 9f bc d6 ea 48 bd 14 80 3d be 04 7e 14 bc
       -0.019464 -0.049052082 -0.18505889 -0.009063248
0001c0 24 21 c9 bd b2 33 21 bf c5 81 86 be 32 db 38 be
       -0.09820774 -0.62969506 -0.2627088 -0.18052366
0001d0 3c ff 11 be 33 75 57 be a3 e0 a0 3c b1 a6 94 be
       -0.1425752 -0.21040802 0.019638365 -0.29033425
0001e0 ff a4 20 be 1c 59 23 be 68 5f 59 be 7e b3 5f be
       -0.15687941 -0.15951961 -0.21227801 -0.21845815
0001f0 6c 27 5d be 54 4a 2d bf f9 82 55 be 71 a0 1c be
       -0.2159707 -0.6769154 -0.20850743 -0.15295579
000200 88 52 5f bd 19 43 7d bd 09 76 d5 bd 83 e6 72 bd
       -0.054522067 -0.061831567 -0.10422904 -0.059301864
000210 ec e8 7e be 0f 86 06 be ca c6 2b be a5 71 0f be
       -0.2489354 -0.13137077 -0.16775051 -0.14008196
000220 ab ca 75 be b3 8f f5 bd d5 90 50 be 8d 69 79 bd
       -0.24003093 -0.11990299 -0.20367749 -0.060891677
000230 0d e0 93 be 94 eb af bd fa a2 5c be 41 f3 80 bc
       -0.28881875 -0.08589855 -0.21546546 -0.015740993
000240 72 63 b4 bd 6a bd 97 be ec db 44 be ba ae 81 be
       -0.0880803 -0.296367 -0.19224519 -0.25328618
000250 7a 6d 61 be 7e c7 21 be f2 36 0f be 9e c6 0e be
       -0.22014418 -0.15798756 -0.13985804 -0.13942954
000260 75 29 04 bf 10 e8 80 bd 53 4c d7 3b ea 7b c3 bd
       -0.5162576 -0.062942624 0.006570378 -0.09545119
000270 d4 7d 0b be 7a e0 00 be 07 e4 4b bd 52 7c 4a 3d
       -0.13622218 -0.12585631 -0.04977801 0.049434967
000280 f4 94 73 be ee f7 59 be 6d 34 20 be fc 40 31 bd
       -0.2378729 -0.21285984 -0.15644999 -0.043274865
000290 e0 5d 93 be ec 45 25 be f7 a3 21 be 2a 00 3e be
       -0.28782558 -0.16139954 -0.15785204 -0.1855475
0002a0 14 45 0b be 8d e8 b3 3c 3b 78 9c bd ff c1 93 be
       -0.1360057 0.021961475 -0.0764012 -0.28858945
0002b0 74 1d ec bd 2c c2 aa be 3d 08 61 be ba 2b d6 bd
       -0.11529055 -0.33351266 -0.21975799 -0.10457559
0002c0 1a 09 72 be 14 df 1e be a3 31 c1 bd be 82 ad be
       -0.23636284 -0.15514785 -0.094332956 -0.3388881
0002d0 30 d8 40 be d2 e6 4f 3c 87 e3 08 bf 44 bd 52 bd
       -0.18832469 0.012689309 -0.5347218 -0.05145003
0002e0 bf 65 d2 3b 21 30 28 3c cc 58 9c be 19 33 47 bc
       0.0064208205 0.010265381 -0.30536497 -0.012158179
0002f0 98 46 92 be 48 6e 52 be 34 fd 12 bd 54 ba 63 be
       -0.28569484 -0.20549881 -0.035886005 -0.22239047
000300 a3 7c 33 bd 9b 00 33 be b4 ca fe bc c7 90 dd be
       -0.043820035 -0.174807 -0.031102516 -0.4327452
000310 78 23 e0 bd fc c9 d7 bd 2c a6 c9 bd 98 96 7a be
       -0.10944265 -0.10536572 -0.09846148 -0.2447151
000320 6c 50 1b bf 3f 51 83 bd 8e e1 81 be 87 a4 b8 bd
       -0.6066959 -0.06411981 -0.25367397 -0.09015756
000330 a0 28 d7 bd 5c df 43 be 7d dd 4b be 05 68 0f be
       -0.105057955 -0.19128174 -0.1990871 -0.14004524
000340 e9 da 85 be d4 50 90 bd 7a 17 37 be 43 ac 0d bf
       -0.26143578 -0.07046667 -0.1788005 -0.55340976
000350 7f 0b 4a be 5f 4c 15 be 85 c7 2a bf c0 b2 00 bf
       -0.19730948 -0.14579915 -0.6671069 -0.5027275
000360 d0 24 78 bd 8b 1d 5f be 72 ad fd bd 3a 40 07 be
       -0.060581982 -0.21788613 -0.12386598 -0.13208094
000370 55 fe 75 be bc 3c 2d be ce db 15 be 94 4f 5b be
       -0.24022801 -0.169177 -0.1463463 -0.21417075
000380 be ef ab be 58 1f 3e be e1 f9 6b bd 09 81 35 be
       -0.33581346 -0.18566644 -0.05761135 -0.17725004
000390 ef 1f 04 be 39 ec 7d 3d 98 db 97 bc ea 5d 79 be
       -0.12902807 0.061992858 -0.018537328 -0.24352232
0003a0 6f 41 8a be ac 8d 02 be 89 8e fa be 44 47 fc bd
       -0.27003047 -0.12749356 -0.4893687 -0.1231828
0003b0 98 53 56 be 7f 53 8c be 16 62 c2 bd ae ef ab be
       -0.20930326 -0.27407452 -0.09491365 -0.335813
0003c0 08 0c 22 be 01 f7 77 be f7 c1 d7 bd 13 61 df bd
       -0.15824902 -0.24215318 -0.10535043 -0.10907187
0003d0 1f 7f 79 bd 55 70 4f be 80 3c bc be 55 de 56 be
       -0.060912248 -0.20257695 -0.36764908 -0.2098325
0003e0 85 db 77 be f4 f2 0a bf 9a 2f 99 be 74 8a bc bd
       -0.24204834 -0.5427697 -0.2991913 -0.09206095
0003f0 ac 3b 6a be 5c 1c ca be 3e 0d 50 be c9 4c e2 be
       -0.22874326 -0.3947476 -0.20317551 -0.44199207

weight f4 [256]
000000 e0 eb 76 3f 47 39 4c 3f 39 d1 5b 3f 54 38 3f 3f
       0.96453667 0.797749 0.85866123 0.74695325
000010 9e 1b 34 3f 25 65 60 3f 5f 15 51 3f e0 58 5c 3f
       0.7035464 0.87654334 0.81673235 0.8607311
000020 b2 5c 50 3f c3 f7 55 3f 92 e0 46 3f e2 a2 36 3f
       0.8139144 0.8358118 0.7768642 0.7134229
000030 90 a7 86 3f c8 43 5d 3f 35 9f 55 3f cc cd 7d 3f
       1.0519886 0.8643155 0.83446056 0.99142146
000040 a6 89 54 3f b1 a0 40 3f 2b f0 79 3f 65 50 6a 3f
       0.83022535 0.75245196 0.9763209 0.9152892
000050 e8 ea 37 3f 15 3d 3b 3f 16 cf 49 3f 0e 82 5c 3f
       0.71842813 0.7314008 0.78831613 0.8613595
000060 42 b4 34 3f 9a 91 5b 3f c5 98 76 3f 66 0b 42 3f
       0.7058755 0.85769045 0.9632686 0.7579864
000070 e8 32 55 3f d3 68 3d 3f cb 2c 5d 3f 8e a0 83 3f
       0.832808 0.73988074 0.86396474 1.0283372
000080 fa e1 4b 3f a0 c8 40 3f 72 d3 60 3f a2 08 37 3f
       0.7964169 0.7530613 0.8782264 0.7149755
000090 a2 1e 65 3f ee 14 52 3f 87 3e 43 3f e6 00 86 3f
       0.89499867 0.82063186 0.76267284 1.0469024
0000a0 26 11 53 3f 80 0e 58 3f 57 a9 34 3f ea f0 64 3f
       0.8244804 0.84397125 0.7057089 0.89430106
0000b0 95 7d 59 3f 9c 10 58 3f d1 31 49 3f 85 20 8e 3f
       0.8495725 0.84400344 0.7859164 1.1103674
0000c0 28 db 6f 3f 8a 0e 76 3f f9 9d 72 3f 5a 18 87 3f
       0.9369378 0.96115935 0.947723 1.0554307
0000d0 2c 9c 4b 3f 2f 62 80 3f ff be 47 3f a1 63 45 3f
       0.79535174 1.0029963 0.7802581 0.77105147
0000e0 ec 76 64 3f f6 f0 72 3f 5a 1b 3f 3f fd 6d 6e 3f
       0.8924396 0.9489893 0.7465111 0.9313658
0000f0 15 ec 7e 3f 35 63 46 3f 15 2e 81 3f e3 10 5a 3f
       0.9957898 0.7749513 1.0092188 0.8518202
000100 20 ae 5a 3f 2d 36 6f 3f 4c 6a 3f 3f 6f 57 43 3f
       0.85421944 0.9344204 0.7477157 0.7630529
000110 dc 95 91 3f 34 2e 3b 3f 31 92 38 3f c6 26 77 3f
       1.1373858 0.73117375 0.7209807 0.9654354
000120 26 1c 5a 3f fe be 7f 3f 85 b8 36 3f f5 3d 38 3f
       0.851992 0.99900806 0.71375304 0.7196954
000130 eb 0a 4f 3f d4 d5 57 3f 62 09 4e 3f d0 66 4e 3f
       0.80876034 0.8431065 0.8048307 0.8062563
000140 ef cb 3a 3f 71 a3 62 3f f8 ba 70 3f a1 da 31 3f
       0.7296743 0.8853064 0.9403529 0.69474226
000150 f3 17 68 3f 2f 02 42 3f f1 75 52 3f cf 9a 4a 3f
       0.90661544 0.7578458 0.82211214 0.7914247
000160 36 24 5c 3f 32 22 43 3f b2 2f 70 3f a5 3b 51 3f
       0.85992754 0.7622405 0.9382278 0.81731635
000170 43 96 40 3f 9c e9 2d 3f ef 54 46 3f 6d e3 22 3f
       0.7522928 0.67934585 0.7747335 0.63628274
000180 c3 84 6a 3f 00 5b 57 3f 93 20 64 3f f4 4a 61 3f
       0.9160883 0.8412323 0.89112204 0.88004994
000190 69 f9 47 3f 10 79 47 3f e5 c4 47 3f 96 d7 57 3f
       0.78114945 0.779191 0.7803481 0.84313333
0001a0 86 83 42 3f b9 40 74 3f ce 05 2d 3f 6b d1 7b 3f
       0.7598194 0.9541126 0.6758698 0.9836642
0001b0 ab 1c 3c 3f 93 9e 3f 3f a6 ae 62 3f 9f a6 3e 3f
       0.73481244 0.7485134 0.8854774 0.74472994
0001c0 8c 20 5e 3f a0 5f 7b 3f 6b cd 44 3f 16 e2 70 3f
       0.8676841 0.9819279 0.7687594 0.9409498
0001d0 46 87 62 3f f5 9d 78 3f f3 a4 53 3f 71 e9 6e 3f
       0.8848766 0.97116023 0.8267357 0.93324953
0001e0 b8 a0 73 3f dd 18 5a 3f e0 9e 59 3f 6c 91 39 3f
       0.9516711 0.8519419 0.8500805 0.7248752
0001f0 f7 66 49 3f 2c be 80 3f a5 ad 54 3f c1 c5 44 3f
       0.78672737 1.0058036 0.8307746 0.7686425
000200 64 e9 5a 3f 6d 30 35 3f de f6 65 3f a6 2d 6f 3f
       0.85512376 0.70777017 0.89829814 0.9342903
000210 c2 50 5c 3f 0b df 48 3f 8b 0a 5f 3f ee 20 32 3f
       0.86060727 0.78465337 0.8712546 0.69581497
000220 43 fa 54 3f 06 59 4d 3f cd 4d 82 3f 4b f2 53 3f
       0.8319437 0.80213964 1.0179993 0.82791585
000230 f4 68 35 3f bb 81 4c 3f 73 8f 7a 3f fa e4 14 3f
       0.7086327 0.79885453 0.97875136 0.5816189
000240 56 a1 55 3f 4d bd 63 3f a7 78 6d 3f 44 c0 70 3f
       0.83449304 0.88960725 0.92762226 0.94043374
000250 b5 4e 5f 3f c3 0f 59 3f 81 b6 35 3f 64 3e 7d 3f
       0.8722947 0.84789675 0.70981604 0.98923326
000260 c6 8e 97 3f c0 6c 32 3f a5 51 4f 3f c4 b3 68 3f
       1.1840446 0.6969719 0.80983955 0.908993
000270 93 05 60 3f 71 b3 63 3f 88 b9 58 3f 54 62 72 3f
       0.87508506 0.8894568 0.846581 0.94681287
000280 00 49 63 3f 37 19 51 3f b5 1c 33 3f 3d eb 3c 3f
       0.88783264 0.816791 0.6996568 0.73796445
000290 5e 96 5e 3f 35 3b 4c 3f cd 29 5d 3f c4 b4 4e 3f
       0.8694819 0.7977784 0.8639191 0.80744576
0002a0 bd b3 43 3f 6b 65 58 3f c3 aa 5d 3f e6 8b 66 3f
       0.76446134 0.8452975 0.86588687 0.9005722
0002b0 51 92 2f 3f 87 a9 4e 3f 65 78 6a 3f a1 6c 63 3f
       0.68582636 0.8072743 0.9158996 0.8883763
0002c0 77 2f 66 3f fe 93 7b 3f 6e f8 60 3f 59 3c 4d 3f
       0.89916176 0.98272693 0.87879074 0.8017021
0002d0 ca a6 63 3f 21 ea 38 3f ad 65 86 3f 0e f6 4f 3f
       0.88926375 0.7223225 1.0499779 0.81234825
0002e0 3c 09 4c 3f a4 fd 3f 3f 84 19 7a 3f 3e bd 3f 3f
       0.7970159 0.749964 0.97695184 0.74898136
0002f0 4d d0 68 3f 86 14 6f 3f 71 a4 56 3f d6 16 5d 3f
       0.9094284 0.9339069 0.8384467 0.8636297
000300 9a 73 67 3f e3 0f 42 3f 1b cb 42 3f d8 a8 8e 3f
       0.9041077 0.7580549 0.76091164 1.1145277
000310 db 70 4a 3f cb 77 3d 3f 26 92 50 3f b5 b6 4b 3f
       0.79078454 0.74010915 0.81473005 0.79575664
000320 8c b3 78 3f a9 c9 38 3f 77 25 5d 3f b7 3f 3f 3f
       0.97148967 0.7218271 0.8638529 0.74706596
000330 fe 57 39 3f 80 41 6e 3f 49 70 4f 3f b5 ce 81 3f
       0.7239989 0.93068695 0.8103071 1.0141207
000340 bc 23 72 3f 26 d9 53 3f c0 6b 65 3f fe f0 8c 3f
       0.94585776 0.8275322 0.8961754 1.1011045
000350 c9 14 50 3f 1a 70 4b 3f 06 5e 7c 3f d0 ef 57 3f
       0.81281716 0.7946793 0.9858097 0.843503
000360 50 49 4b 3f 35 b0 5d 3f d2 bd 6e 3f bc 16 5d 3f
       0.7940874 0.86596996 0.9325839 0.86362815
000370 ba 36 7a 3f b7 a7 52 3f c7 54 4d 3f e2 b4 36 3f
       0.97739756 0.8228716 0.80207485 0.71369755
000380 af b1 91 3f 53 a9 56 3f e9 ec 31 3f 7c 9a 6d 3f
       1.138235 0.8385212 0.6950212 0.9281385
000390 5d 85 4d 3f 22 5c 3e 3f fb 43 2f 3f ae 97 5e 3f
       0.8028162 0.74359334 0.68463105 0.86950195
0003a0 4d de 51 3f bf 76 30 3f 0c 93 7f 3f 83 76 42 3f
       0.8197983 0.6893119 0.9983375 0.75962085
0003b0 7e f3 6b 3f 14 dc 84 3f 76 ea 4b 3f 9a 8b 58 3f
       0.92168415 1.0379663 0.79654634 0.84588015
0003c0 23 80 2e 3f 3a 47 60 3f cc 07 3b 3f 81 19 4d 3f
       0.6816427 0.87608683 0.7305877 0.8011704
0003d0 97 8b 41 3f 51 49 5f 3f 8b da 8d 3f 46 34 81 3f
       0.7560362 0.87221247 1.1082319 1.0094078
0003e0 54 6a 70 3f 2e 68 83 3f 22 54 55 3f f2 51 44 3f
       0.93912244 1.0266168 0.833315 0.7668754
0003f0 df 4a 34 3f 10 53 83 3f 6e dd 53 3f e1 2b 7e 3f
       0.70426744 1.0259724 0.8275975 0.99285704

bias f4 [256]
000000 7a b3 7b be 69 22 78 be b6 2e ee bd 4b aa 88 be
       -0.24580184 -0.24231876 -0.11630003 -0.26692423
000010 5b 17 91 be 5d f1 96 be 6a f7 fa be 51 61 4b be
       -0.2833813 -0.2948102 -0.49016887 -0.19861342
000020 ce 5d 70 be 9c 45 67 be e0 10 82 be d6 4c 7c be
       -0.23473284 -0.22585148 -0.254035 -0.24638686
000030 5f 13 80 be 81 3b a0 be 28 49 03 be a3 e8 9a be
       -0.2501478 -0.31295398 -0.12820876 -0.30255613
000040 33 58 7a be 53 77 7b be cc 8b 75 be 3c ff 7e be
       -0.24447708 -0.24557237 -0.2397911 -0.24902052
000050 70 34 90 be e8 67 8f be 41 2e 51 be 26 d0 ac be
       -0.28165007 -0.28008962 -0.204278 -0.33752555
000060 80 c2 7a be c2 00 3a be 72 6b 32 be d5 f3 60 be
       -0.24488258 -0.18164352 -0.174238 -0.21968015
000070 ce 5e 80 be ae cf 88 be 1a e6 5a be 05 11 e7 bd
       -0.2507233 -0.26720947 -0.2137684 -0.11282543
000080 c0 3c ab be 34 f7 8b be 6c 2c b9 be ee 8c 7f be
       -0.33444786 -0.2733704 -0.36166704 -0.24956104
000090 ec db 25 be 07 11 39 be 4c 51 9b be d4 40 38 be
       -0.16197175 -0.18072902 -0.30335462 -0.1799348
0000a0 53 eb 08 be 24 10 77 bd 58 68 a7 be b7 dc b4 bd
       -0.13371019 -0.060318127 -0.32696795 -0.088311605
0000b0 6b e6 f6 be f8 f0 85 be 2f 33 71 be 4f 42 39 be
       -0.4822267 -0.26160407 -0.23554681 -0.18091701
0000c0 2f 5a 12 be 45 26 6c be 7a 02 ec be fe 21 b9 bd
       -0.14292215 -0.23061474 -0.4609564 -0.090396866
0000d0 ff 19 8a be 1f cb c7 bd e0 32 59 be b7 89 24 be
       -0.26972958 -0.09755539 -0.21210814 -0.16068159
0000e0 a6 9d a2 be 60 a2 f7 be f7 ce 7e be fc ba 8b be
       -0.317609 -0.4836607 -0.24883638 -0.27291095
0000f0 cf a2 1c bd ae 76 50 be 68 34 20 be 00 49 8a be
       -0.038241204 -0.20357773 -0.15644991 -0.2700882
000100 4a b1 c9 bd f9 01 40 be 4e df d6 be af 24 d6 bd
       -0.09848268 -0.18750753 -0.41967243 -0.104562156
000110 13 7c 34 be 56 a4 2b be e6 c2 47 be 6f d6 95 be
       -0.17625456 -0.16761908 -0.19507942 -0.29265162
000120 65 fc 59 be 22 1f 58 be 16 62 92 be 9d 1c 61 be
       -0.21287687 -0.21105626 -0.2859046 -0.21983571
000130 8a 02 8a be 13 3b 99 bd 4a fb 91 be db 93 74 be
       -0.26955062 -0.07481971 -0.2851203 -0.23884527
000140 e5 88 2d be 96 4e 2f be 61 38 e1 be 6e fb 42 be
       -0.16946752 -0.17119822 -0.43988326 -0.19041225
000150 d0 02 05 bd 43 3c 42 be ca 37 ac be 84 9a 9a be
       -0.032473385 -0.189683 -0.33636314 -0.3019601
000160 94 e6 00 be dd ac 89 be 8e d8 38 be 82 b3 71 be
       -0.12587959 -0.26889697 -0.18051359 -0.23603633
000170 b5 6f 45 be 11 ba 47 be f1 89 42 be e1 b7 5f be
       -0.19280894 -0.19504572 -0.18997933 -0.21847488
000180 dc 3c 3c be b0 24 8a be 67 22 61 be a6 20 fa bd
       -0.18382591 -0.26981115 -0.2198578 -0.122132584
000190 60 4a 78 be fb cd f6 bd 4b 9a 88 be 73 27 07 be
       -0.24247122 -0.120510064 -0.26680216 -0.13198642
0001a0 61 f5 f9 bd ce 8d 08 be 3d 2c 84 be 5d 8c 0b bf
       -0.122050054 -0.13335344 -0.25815 -0.5451105
0001b0 87 96 86 be 3c bb 97 be ea 15 8b be 45 b4 8c be
       -0.26286718 -0.29635036 -0.27165157 -0.27481285
0001c0 5a 7a 47 be 20 dc 05 bf aa 45 89 be 92 f7 2c 3c
       -0.19480267 -0.5228901 -0.26810962 0.010557072
0001d0 0b 2f 2a be 65 3e 29 be bf 62 1f be b3 e9 01 be
       -0.16619508 -0.16527708 -0.15565012 -0.12686805
0001e0 ac e5 6e be b9 8b 2d be 3c 4f 85 be 6b 28 81 be
       -0.233298 -0.16947831 -0.26037014 -0.2522615
0001f0 5e 5c f6 bd 92 2d fd be 92 9a b3 be 54 51 67 be
       -0.120293364 -0.4944883 -0.35078865 -0.22589618
000200 be 2f 83 be da 6a a3 bd 7e 47 81 be b8 83 6e be
       -0.25622362 -0.07979365 -0.25249857 -0.23292434
000210 a8 a8 dc 3d 73 6c 84 be 9a c6 1e be e7 4f b0 bd
       0.10774356 -0.2586399 -0.15505448 -0.0860899
000220 d5 d5 a7 be ee 8a 6e be ed cb a4 3d e8 e2 22 be
       -0.32780328 -0.23295185 0.08046708 -0.1590687
000230 a8 76 6b be a4 01 78 be 63 22 92 be 9e e5 57 be
       -0.22994483 -0.24219376 -0.2854186 -0.21083686
000240 54 33 23 be c6 df 3d be 08 b7 9f 3b 2c eb 4f be
       -0.15937549 -0.18542394 0.004874114 -0.20304555
000250 e5 93 74 be 34 1a 97 be 03 03 8b be 17 ff 7c be
       -0.23884542 -0.2951218 -0.27150735 -0.24706684
000260 a6 3b 5a be 71 0e 21 be 63 41 5d be 4e b3 52 be
       -0.21311817 -0.15728165 -0.21606974 -0.20576212
000270 de 27 4a be be bf a0 be d0 5a 66 be ec ce 95 bd
       -0.1974177 -0.31396288 -0.2249558 -0.07314858
000280 0e 6c 9d be 23 c5 3e be 45 c9 5b be 2d 8a 72 be
       -0.30746502 -0.18629889 -0.21463497 -0.23685522
000290 3d c7 dd bd 39 60 99 be 7d 61 93 be ad 90 b6 be
       -0.10829017 -0.29956225 -0.28785315 -0.35657254
0002a0 73 01 42 be 4a 3e 68 be c7 0d 4d be 91 ad f1 be
       -0.18945865 -0.22680011 -0.20024787 -0.47202733
0002b0 6a 5f 89 be a8 76 27 be 53 fa 80 be 55 c5 84 be
       -0.26830608 -0.16353858 -0.25190982 -0.25931802
0002c0 95 ec 5b be 2d 6f 18 bd 7f 39 de bc 9f 8e c1 be
       -0.21476968 -0.0372154 -0.027127026 -0.37804124
0002d0 6b bd 97 be ff 40 3c be c4 25 bc be bb 18 5a be
       -0.29636702 -0.18384169 -0.36747563 -0.21298496
0002e0 a1 40 69 be 33 a7 81 be 7a 15 b5 be d3 b1 28 be
       -0.2277856 -0.25322875 -0.35367948 -0.16474085
0002f0 c2 fd 96 be d5 e6 51 be d8 6c 15 be 61 a9 8a be
       -0.29490477 -0.20498212 -0.14592302 -0.2708235
000300 01 19 81 be ed 2e 9b be b6 e4 7d be 7d 91 6d 3d
       -0.2521439 -0.3030924 -0.24794278 0.058000077
000310 31 ee 86 be 77 e1 48 be aa 52 86 be 3e d4 17 be
       -0.263536 -0.19617258 -0.26234943 -0.14827058
000320 da f6 f3 be 51 9c 60 be 5b ea 6d be 81 de 74 be
       -0.4764927 -0.2193463 -0.23233931 -0.23913004
000330 16 aa 9d be 32 2d 82 be 5c 5e 41 be 2c 0f 39 be
       -0.30793828 -0.25425106 -0.18883651 -0.18072194
000340 c0 58 76 be 6a 8c 24 be 26 19 70 be 4b 39 bc be
       -0.24057293 -0.16069189 -0.23447093 -0.3676246
000350 fe f9 88 be c9 8a 25 be ec e1 07 bf b1 52 f3 be
       -0.2675323 -0.16166224 -0.53079104 -0.47524026
000360 d0 ff 43 be 4b a5 8a bd 98 7c 8e be 5f 94 70 be
       -0.19140553 -0.067698084 -0.27829432 -0.23494099
000370 19 57 1f be da 18 33 be a0 95 3c be c0 c1 97 be
       -0.15560569 -0.17489949 -0.18416452 -0.29640007
000380 cf 42 a0 bd 3c 6f 86 be 2e 79 93 be e5 f4 31 be
       -0.07825243 -0.2625674 -0.2880339 -0.17378576
000390 ef fd 13 be af f4 74 be 99 de 96 be 1a 2e 72 be
       -0.14452337 -0.23921464 -0.29466704 -0.23650399
0003a0 73 80 7c be cc c3 7c be f9 a6 c5 be 92 52 82 be
       -0.24658374 -0.24684066 -0.38603953 -0.2545362
0003b0 f3 9f 69 be 31 3d 8a be 2a ac 5a be ab d9 0d be
       -0.22814922 -0.2699981 -0.21354738 -0.13852565
0003c0 a9 71 95 be 3f ee c7 be 1f 27 71 be 39 32 7f be
       -0.29188278 -0.39048955 -0.2355008 -0.24921502
0003d0 c7 55 79 be 1c f7 76 be c0 e1 74 be 51 45 61 be
       -0.24349128 -0.24117702 -0.23914242 -0.21999098
0003e0 59 17 69 be 6c b1 ec be be bd c6 be 24 12 90 be
       -0.22762813 -0.46229112 -0.38816637 -0.2813884
0003f0 e2 f1 c7 be 40 54 9e be 2f 09 a5 be 10 10 13 bd
       -0.3905173 -0.30923653 -0.3223357 -0.03590399

running_mean f4 [256]
000000 eb c1 a1 be cc d1 65 bd 55 ce 62 bd 42 46 3e be
       -0.3159326 -0.05610828 -0.055372555 -0.18581489
000010 4c d8 87 bc 0b 42 11 be 22 14 9e be 1e 1e d1 bd
       -0.01658263 -0.1418535 -0.30874735 -0.102108225
000020 44 c9 8a 3c 78 f5 7c be df b2 3f bd fc 21 20 be
       0.016941674 -0.24703014 -0.046801444 -0.15637964
000030 4a 23 e5 be 45 86 e8 bd ea 4f ee bd 3e 0d 08 be
       -0.44753486 -0.11353735 -0.11636336 -0.13286301
000040 29 55 e0 bc a0 31 45 be 14 dc 73 be bc bb 80 be
       -0.027384358 -0.19257212 -0.23814422 -0.2514323
000050 f4 e0 20 be 28 f2 4f be 83 da 8e be e8 37 cf bd
       -0.15710813 -0.20307219 -0.27901086 -0.10118085
000060 ce 2d 1d be 29 0e 37 bd 06 e8 0e be 32 6d d3 bd
       -0.15349504 -0.04469124 -0.13955697 -0.10323562
000070 4b da 23 be 70 35 0c be 28 7f 67 be 40 a3 b9 be
       -0.16001241 -0.1369226 -0.226071 -0.36257362
000080 3a 6d 6e be 5f 09 e4 bd 4b 80 ae be a9 b6 96 be
       -0.23283854 -0.111346 -0.34082255 -0.29436234
000090 b6 ed b3 bd 1a fd 31 be a2 fc 50 be a0 a1 23 be
       -0.08785574 -0.17381707 -0.20408872 -0.15979624
0000a0 76 ba 32 be 30 3f a3 be 14 2b bd bd 6c 94 01 3e
       -0.17453942 -0.31884146 -0.09236732 0.12654275
0000b0 c5 41 d6 be 45 97 a8 bd 52 54 3f be 40 0e a2 be
       -0.41847053 -0.082319774 -0.1868451 -0.31651497
0000c0 d0 78 7d be 0f 99 31 be f5 40 f2 be ab bc 1f be
       -0.24753118 -0.17343543 -0.47315183 -0.15599315
0000d0 ea 06 e2 bc 24 82 91 be fb 60 bb bd 55 54 28 be
       -0.027591188 -0.28419602 -0.09149357 -0.1643842
0000e0 11 4f 9f be ee 30 21 bf f8 91 8f be 4a 61 4a bd
       -0.3111501 -0.62965286 -0.28041053 -0.04940919
0000f0 90 48 91 be 71 68 89 bd 7c d6 a9 bd fd 89 08 be
       -0.28375673 -0.06709374 -0.08292863 -0.13333888
000100 d4 73 f9 3b 4f c8 07 3d cc 2b 86 be 68 55 b7 bd
       0.0076126847 0.033150014 -0.2620529 -0.08951837
000110 fd 84 26 bd ec 89 a9 3c 20 59 52 3d 2e 83 91 be
       -0.04065417 0.02069565 0.051354527 -0.28420395
000120 bf 7b 40 bd 4d 10 d8 bd a7 71 4d bc 64 b2 4d 3d
       -0.046993013 -0.10549984 -0.012539304 0.050218955
000130 86 f7 0a bd f8 4b 13 be bb f1 84 be 0e 4b 12 3e
       -0.033927463 -0.14384449 -0.25965676 0.14286444
000140 51 a7 27 be 8c c2 64 be 4c c2 ce be 99 4a 1d be
       -0.1637242 -0.22339839 -0.40382612 -0.15360488
000150 4b 90 3e be 29 a5 ab bd 7c 59 18 be 5a cf 3a bd
       -0.18609731 -0.08381111 -0.14877886 -0.045607902
000160 4e c3 eb bd 00 f7 7c be 47 9b 85 be 0e 2b 58 bd
       -0.11511861 -0.24703598 -0.2609503 -0.052775435
000170 52 d5 b6 bd d9 1d f2 bd c1 d4 65 be e0 0c e2 3d
       -0.08927406 -0.11822099 -0.2244444 0.11037612
000180 ad 76 96 be 43 2b 2a be e1 42 b6 be e7 f8 ef bd
       -0.29387417 -0.16618066 -0.355979 -0.11717396
000190 c2 86 66 be f7 b5 4b be 6c ce 68 bd 64 c1 93 be
       -0.22512344 -0.19893633 -0.056837484 -0.28858483
0001a0 b3 4a 36 3e 4c 1a 13 be 42 de 68 bd 88 96 3e bf
       0.17801933 -0.143655 -0.056852587 -0.7444844
0001b0 c9 50 77 3d 96 e7 f3 bb c7 2b 3c be ba a1 66 bb
       0.060379777 -0.0074433787 -0.18376075 -0.0035191611
0001c0 20 02 ad bd 4f 70 19 bf e4 b9 3c be b7 dd 41 be
       -0.08447671 -0.59936994 -0.18430287 -0.18932234
0001d0 94 f4 5d bd 03 a1 16 be 00 25 7b 3d 22 b5 44 be
       -0.054188326 -0.14709859 0.061314583 -0.19209722
0001e0 cf 1e 03 be 9e c3 3d be af a6 3c be 35 cc 10 be
       -0.12804721 -0.18531653 -0.1842296 -0.14140399
0001f0 7d c4 4c be 69 8e 2a bf 14 70 53 be 50 09 0b be
       -0.1999683 -0.6662355 -0.20648223 -0.13577771
000200 1a 57 bd bd c0 2d 37 be 08 40 92 bd 67 97 22 bc
       -0.09245129 -0.17888546 -0.07141119 -0.009923792
000210 e3 28 9f be b8 76 8e bd 2c a5 4b be 7b 8c 78 be
       -0.31085882 -0.069562376 -0.19887227 -0.24272339
000220 b7 e6 6d be 80 35 d8 bd ba 65 57 be 61 b9 fe bd
       -0.23232542 -0.10557079 -0.210349 -0.12437702
000230 6e ba b0 be 44 9c 07 be 55 57 4f be 71 ac ce bd
       -0.34517235 -0.13243204 -0.20248158 -0.10091484
000240 bd 8b fe bd 94 e0 a2 be 93 a6 81 be ac 87 64 be
       -0.12428997 -0.31811965 -0.253224 -0.2231738
000250 d6 72 31 be 0e 52 28 be 12 ef d1 bd a9 e9 b4 bd
       -0.17328963 -0.16437551 -0.10250677 -0.0883363
000260 ad 3d 0e bf a0 e5 5e 3a 18 91 7e 3d f1 b1 f1 bc
       -0.5556286 0.0008502845 0.06215009 -0.029503794
000270 d1 25 d7 bd 5c a7 fe bd 40 8f 00 bd f6 e0 78 3c
       -0.1050526 -0.12434265 -0.031386614 0.015190354
000280 3b 20 ef bd 48 63 0f be e8 f3 1b be 04 a9 13 bd
       -0.11676069 -0.14002717 -0.15229762 -0.036049858
000290 91 7f b4 be c9 89 df bd 38 b2 08 be b1 c6 11 be
       -0.35253575 -0.10914952 -0.13349235 -0.14235951
0002a0 60 45 08 be 5e 28 36 3c 5c 56 80 bd 76 ac 9a be
       -0.13307714 0.011118023 -0.06266472 -0.30209702
0002b0 f2 fd 1c be cb d6 c7 be 16 2d 0f be 13 ad 94 bd
       -0.15331247 -0.39031062 -0.13982043 -0.07259574
0002c0 1d 59 90 be 5d 80 4c be f4 1e 20 be 87 9d 91 be
       -0.28192988 -0.19970842 -0.15636808 -0.28440496
0002d0 3b 19 53 be 02 ec 16 bb 31 54 05 bf 87 c1 4b bd
       -0.20615093 -0.0023028855 -0.5208159 -0.04974511
0002e0 1b 63 90 bd ee fc db 3c a8 50 7f be 07 c2 03 3c
       -0.07050153 0.026854005 -0.24933112 0.008041865
0002f0 00 a0 75 be 60 35 f3 bd 29 90 f0 3d bd 9d c7 bd
       -0.23986816 -0.11875415 0.11746246 -0.09746883
000300 fb 34 a3 bd 69 d5 13 be ad 7a a9 3c 6a b9 8f be
       -0.079690896 -0.14436878 0.02068838 -0.28071147
000310 1e 05 3d be d9 7c 3d bc 4e 30 19 3c 81 6f 89 be
       -0.18458983 -0.0115654105 0.009349896 -0.26842883
000320 e3 ef 0f bf b4 67 a6 bd ef 9b 89 be 86 d9 e9 bd
       -0.56225413 -0.081252486 -0.2687678 -0.114184424
000330 15 f9 69 bd ec 59 0a be 16 d1 39 be 92 c2 c8 bd
       -0.05712231 -0.13510865 -0.18146166 -0.09802736
000340 53 1e 58 be d9 c7 dc bd bd 4d 52 be d8 cf 05 bf
       -0.21105318 -0.107803054 -0.20537467 -0.5227027
000350 46 87 4b be 69 d4 08 be ac a2 24 bf 7a 50 f9 be
       -0.19875821 -0.13362278 -0.6431072 -0.4869421
000360 56 8e 01 be 41 a4 8f be 50 01 f6 bd 0e 7a 83 bd
       -0.12651953 -0.28055003 -0.12011969 -0.064197645
000370 c4 0e 43 be 9e 3b 7c be f7 b6 84 bc 19 3a e6 bd
       -0.19048601 -0.24632117 -0.016200526 -0.1124155
000380 59 76 c3 be 14 67 86 be 07 78 8e 3c eb b7 ec bd
       -0.3817623 -0.26250517 0.017391218 -0.11558517
000390 2e 03 e2 bd 10 f7 d0 3d 7f 8b f1 bc 6f a0 86 be
       -0.11035763 0.102033734 -0.029485462 -0.26294276
0003a0 da cf 69 be 3c 50 14 be 2d 76 fa be 20 bc cf bc
       -0.22833195 -0.14483732 -0.48918286 -0.02535826
0003b0 32 eb 4a be 6b 6e 4c be f5 2e a1 bd 30 61 c2 be
       -0.19816282 -0.19963996 -0.078702845 -0.37964773
0003c0 27 b3 71 be 20 b5 0e be 9a 11 9e bd 14 45 24 bd
       -0.23603497 -0.13936281 -0.07718201 -0.04010494
0003d0 cb 0b 59 bc c5 36 67 be 92 44 bf be 67 e5 43 be
       -0.013247441 -0.22579487 -0.37357002 -0.19130479
0003e0 27 f7 25 be ee db fc be 2b 9e 8a be be 72 4c 3d
       -0.16207562 -0.49386543 -0.27073798 0.049914114
0003f0 83 e8 13 be 51 77 9b be d4 5f 5e be a4 f0 b0 be
       -0.14444165 -0.3036447 -0.21716243 -0.34558594

running_var f4 [256]
000000 46 bb a4 3f 4b 9a 44 3f 18 b7 73 3f 88 d4 68 3f
       1.2869651 0.7679793 0.95201254 0.90949297
000010 fb ee 57 3f f7 ab 91 3f 62 1a 8c 3f 60 63 87 3f
       0.8434903 1.1380605 1.0945551 1.0577202
000020 0e 1c 54 3f cb 29 63 3f 87 fb 65 3f f9 f1 38 3f
       0.8285531 0.88735646 0.89836925 0.7224422
000030 1f 9a 9f 3f b5 65 80 3f 7a ad 7f 3f 7b 0c 86 3f
       1.2468909 1.0031039 0.9987408 1.0472559
000040 af 0a 5f 3f 1c 72 66 3f d3 ad 86 3f 42 8b 8d 3f
       0.87125677 0.9001787 1.0521797 1.1058123
000050 82 27 35 3f bb dd 38 3f 02 c1 83 3f 0e 07 64 3f
       0.7076341 0.72213334 1.0293276 0.89073265
000060 dc 5f 3a 3f e4 05 61 3f 4f 38 8f 3f 47 67 61 3f
       0.7280252 0.87899613 1.1189059 0.88048214
000070 a3 c8 6a 3f 5b 12 68 3f ce 5b 7a 3f 60 b4 84 3f
       0.917124 0.9065301 0.9779633 1.0367546
000080 0e 67 7a 3f 2a 12 5d 3f 02 2a 91 3f 43 11 2f 3f
       0.978135 0.8635584 1.1340945 0.68385714
000090 26 e8 5a 3f 31 35 62 3f 63 be 4e 3f 42 8a 8a 3f
       0.8551048 0.88362414 0.8075926 1.0823443
0000a0 89 cd 86 3f c8 6c 68 3f f2 ff 3c 3f ae 12 74 3f
       1.0531474 0.90790987 0.7382804 0.95341
0000b0 7b 4b 91 3f 03 d0 74 3f b6 c9 48 3f c9 f3 aa 3f
       1.135116 0.956299 0.78432786 1.3355647
0000c0 1e fc 91 3f 90 d8 9f 3f 9f 6e a9 3f 8c 93 80 3f
       1.1405065 1.2487965 1.3236884 1.0045028
0000d0 b4 c9 59 3f f2 45 99 3f 00 99 68 3f 81 e8 50 3f
       0.850734 1.1974471 0.9085846 0.8160477
0000e0 3f df 85 3f bb 88 ab 3f 8c f9 5f 3f a6 42 8f 3f
       1.0458754 1.3401102 0.87490153 1.1192214
0000f0 62 de 9c 3f b2 59 38 3f 41 cf 8f 3f 68 fa 82 3f
       1.2255366 0.72011864 1.1235124 1.0232668
000100 3e 27 62 3f 5e a5 85 3f 2f dd 67 3f b0 f8 4e 3f
       0.8834113 1.0441091 0.90571874 0.80848217
000110 6a c0 a7 3f 54 f9 33 3f ca d0 54 3f 06 2b a3 3f
       1.3105595 0.7030232 0.83131087 1.2747505
000120 97 26 85 3f b8 5a a4 3f f3 d8 47 3f 48 ec 3d 3f
       1.0402402 1.2840185 0.78065413 0.7418866
000130 93 ae 6a 3f 50 76 89 3f 1b 3b 47 3f 68 a7 85 3f
       0.9167263 1.0739231 0.7782456 1.0441713
000140 7d 8a 53 3f c5 aa 73 3f ef 6b 9d 3f 7f 3d 27 3f
       0.8263319 0.9518245 1.2298564 0.6532821
000150 12 72 9e 3f 3c d8 4e 3f 78 12 7d 3f bd ef 5b 3f
       1.2378561 0.807987 0.98856306 0.85912687
000160 e8 86 67 3f a6 84 62 3f 0a 26 5c 3f 5e 86 5f 3f
       0.90440226 0.88483655 0.85995543 0.87314403
000170 7a e2 4d 3f 80 86 2c 3f b0 15 75 3f 96 06 2c 3f
       0.804237 0.6739273 0.9573622 0.6719755
000180 04 bf 93 3f fb 57 81 3f 47 f3 7e 3f 09 e2 6c 3f
       1.1542668 1.0104975 0.9958996 0.925324
000190 96 36 3f 3f bc f3 3e 3f 7a 78 61 3f 79 1f 81 3f
       0.74692667 0.7459066 0.8807446 1.008773
0001a0 84 1c 3c 3f 8c 90 95 3f 64 55 2e 3f be 3e c1 3f
       0.7348101 1.1684737 0.68099046 1.5097272
0001b0 d5 b0 1e 3f 48 3f 41 3f c9 f8 87 3f 1c f5 43 3f
       0.61988574 0.75487185 1.0622798 0.7654588
0001c0 82 00 61 3f 8b 30 ac 3f f9 20 5c 3f 06 b6 82 3f
       0.878914 1.3452314 0.8598781 1.0211799
0001d0 7a fd 6c 3f 71 fb 8a 3f 76 b1 7b 3f 17 e0 8f 3f
       0.92574275 1.0857984 0.9831766 1.1240262
0001e0 f4 86 78 3f e4 75 5d 3f 18 3e 61 3f 79 19 2e 3f
       0.9708092 0.8650801 0.8798537 0.6800762
0001f0 d3 81 87 3f 90 55 bb 3f aa 7a 80 3f 61 38 6d 3f
       1.0586494 1.4635487 1.0037434 0.9266415
000200 63 f6 79 3f 97 16 8f 3f a8 bc 8d 3f bc 7e 80 3f
       0.9764158 1.1178769 1.1073198 1.0038676
000210 3b 93 89 3f 8d e1 3c 3f 33 75 7f 3f 7b 99 48 3f
       1.0748056 0.73781663 0.99788207 0.7835919
000220 c0 c1 80 3f ae f7 8c 3f e0 7d 99 3f fc 56 8c 3f
       1.0059128 1.1013086 1.1991539 1.0964046
000230 36 86 3a 3f 57 8c 51 3f 0e b5 93 3f 7f 4e 34 3f
       0.7286104 0.81854767 1.1539629 0.70432276
000240 40 16 83 3f e6 18 6e 3f 14 12 83 3f 7b 11 88 3f
       1.0241165 0.9300674 1.0239892 1.0630335
000250 27 ea 8a 3f d0 01 86 3f c9 2d 45 3f d1 e3 92 3f
       1.0852708 1.0469303 0.7702299 1.1475774
000260 24 0e ba 3f 41 63 40 3f 63 38 62 3f 60 24 8e 3f
       1.4535565 0.7515145 0.8836729 1.1104851
000270 8e 5f 9e 3f ea de 83 3f 24 33 85 3f d7 ed 98 3f
       1.2372911 1.0302403 1.0406232 1.1947583
000280 c0 36 97 3f 34 dc 4a 3f 41 ee 33 3f 1e 3d 58 3f
       1.1813583 0.79242253 0.7028542 0.8446826
000290 8e da 89 3f cb 5f 54 3f b9 a1 61 3f 12 53 6d 3f
       1.0769823 0.8295867 0.88137394 0.9270488
0002a0 c2 a2 63 3f d6 f5 60 3f bf 5b 6f 3f 4c 61 a4 3f
       0.88920224 0.87875116 0.9349937 1.2842193
0002b0 80 fa 43 3f 6c 0e 50 3f b3 e4 8a 3f 62 fe 74 3f
       0.7655411 0.81272006 1.0851043 0.9570066
0002c0 55 9f 82 3f 06 8c 94 3f 50 34 80 3f 7f 44 83 3f
       1.0204874 1.1605232 1.0015965 1.0255278
0002d0 08 e0 87 3f 17 59 73 3f ba 45 90 3f 57 f3 58 3f
       1.0615244 0.95057815 1.1271279 0.8474631
0002e0 6c 8c 79 3f 69 8e 64 3f 93 1f a0 3f cb db 27 3f
       0.9747989 0.892798 1.2509636 0.6556975
0002f0 56 e1 81 3f a3 5e 86 3f 5f 06 6c 3f 30 73 7b 3f
       1.0146892 1.0497631 0.9219722 0.9822264
000300 a8 14 77 3f fa d9 30 3f 90 20 68 3f e5 6d a4 3f
       0.96515894 0.69082606 0.90674686 1.2846037
000310 ef dd 5f 3f 5d 9e 59 3f 40 ae 73 3f 59 e2 75 3f
       0.8744802 0.8500727 0.9518776 0.96048504
000320 19 c5 a8 3f bc bd 5b 3f 3b ed 64 3f 00 48 41 3f
       1.318515 0.85836387 0.89424485 0.7550049
000330 88 cd 20 3f 41 02 81 3f c3 38 80 3f f6 61 9a 3f
       0.62813616 1.0078813 1.0017322 1.2061145
000340 fc 25 99 3f b3 90 62 3f 1c 65 92 3f c3 46 ba 3f
       1.1964717 0.88502043 1.1437106 1.4552845
000350 66 03 5f 3f f9 04 82 3f 8e 70 b4 3f a7 0f 85 3f
       0.8711456 1.0157768 1.4096849 1.0395402
000360 a5 39 74 3f 50 e3 91 3f 43 70 8d 3f 01 94 84 3f
       0.9540046 1.1397495 1.1049885 1.0357667
000370 51 0e 98 3f c8 7a 82 3f 1b 9b 4b 3f 54 20 39 3f
       1.1879369 1.019372 0.7953355 0.72314954
000380 c4 5a 97 3f b0 82 62 3f ce fd 46 3f 6a e9 73 3f
       1.1824574 0.88480663 0.77731025 0.95278037
000390 00 64 2a 3f ec 3f 56 3f fa 90 28 3f f4 f5 6f 3f
       0.6655884 0.8369129 0.65846217 0.9373467
0003a0 87 2a 59 3f 05 c6 53 3f 0a fb 96 3f e8 5b 33 3f
       0.84830517 0.8272403 1.1795361 0.7006211
0003b0 f5 10 89 3f 1a b9 b5 3f 7d 22 4e 3f 1d 47 81 3f
       1.07083 1.4197114 0.80521375 1.0099827
0003c0 c4 87 44 3f 24 c3 8c 3f b5 d1 30 3f d0 9b 32 3f
       0.7676966 1.0997052 0.6906999 0.69769
0003d0 76 be 5b 3f a3 4c 77 3f ba 1e a6 3f 39 a5 90 3f
       0.85837495 0.96601313 1.2978127 1.1300422
0003e0 21 14 7d 3f 5a dc 98 3f 54 bc 83 3f 1f 29 56 3f
       0.9885884 1.1942246 1.0291848 0.83656496
0003f0 45 97 59 3f 1d 16 b4 3f 08 26 7d 3f 09 65 a6 3f
       0.84996444 1.4069248 0.98886156 1.2999583

tau f4 [256]
000000 1a 40 5c 3e 91 4a 61 3e 6d 10 88 3e 38 89 6f 3e
       0.21508828 0.22001101 0.26575032 0.23392189
000010 c6 71 b4 3e 5a 39 7d 3e c2 5c 10 3f 8f e9 b3 3e
       0.35243052 0.24728909 0.5639154 0.3513913
000020 88 79 87 3e ca 37 39 3e 77 50 8a 3e 80 87 7a 3e
       0.26459908 0.18087688 0.27014515 0.24465752
000030 9f cd 33 3f 7c 23 ab 3e 3c a3 a3 3e 64 49 bf 3e
       0.7023563 0.3342551 0.31960475 0.3736068
000040 4c 83 9f 3e 60 e0 4c 3e 14 b5 f2 3e f8 d9 ff 3e
       0.3115486 0.20007467 0.47403777 0.49970984
000050 c9 54 2d 3e 63 ef 6c 3e be 5b 74 3e ee 14 b0 3e
       0.16926874 0.23138194 0.23863122 0.34390968
000060 30 2a 91 3e 45 a2 ac 3e d6 bc 08 3e f5 9f 0d 3e
       0.283525 0.33717552 0.13353285 0.1383055
000070 f9 1b 9f 3e 6c e7 6a 3e dd e9 dc 3e dc fb 08 3f
       0.3107603 0.22939843 0.43147174 0.53509307
000080 2e 00 a1 3e c1 52 5b 3e 41 10 63 3e 22 2d ba 3e
       0.3144545 0.21418287 0.22174169 0.3636256
000090 5b ac cc 3e 8b ea 95 3e 3c 68 d7 3e ba b1 d3 3e
       0.39975247 0.29280505 0.42071712 0.41346532
0000a0 98 b1 b8 3e 92 65 d9 3e a5 cf 87 3e 1f 13 67 3e
       0.36072993 0.42460304 0.26525608 0.22565888
0000b0 33 0c 14 3f 02 cc 85 3e 74 1a 97 3e 5a f8 21 3f
       0.57831115 0.26132208 0.2951237 0.6326958
0000c0 9e f1 8d 3e 86 3f 64 3e 1d 9b 0f 3f 96 68 ec 3e
       0.27723402 0.22289857 0.5609606 0.46173543
0000d0 9d 48 c1 3e 16 38 0f 3f e9 d4 91 3e bf 03 27 3e
       0.37750712 0.55944955 0.2848275 0.16310023
0000e0 5a 7f 9c 3e 37 97 0c 3f 03 a7 15 3e cb 15 4b 3e
       0.30565912 0.54918236 0.14614491 0.19832532
0000f0 79 4a ac 3e ae 3e 95 3e a0 6d 70 3e 2e 33 28 3e
       0.33650568 0.29149383 0.23479319 0.16425774
000100 ab ac e4 3e e2 9e 91 3e 4a f3 d9 3e f7 bf b7 3e
       0.44662985 0.2844153 0.42568427 0.35888645
000110 7a 9e 94 3e ef bb a3 3e fe 49 97 3e 66 65 1e 3e
       0.29027158 0.3197932 0.2954864 0.15468368
000120 57 84 a8 3e 43 a7 7c 3e 3b 13 a4 3e cb 1f 8b 3e
       0.32913467 0.2467318 0.32045922 0.27172694
000130 4e 79 6f 3e b1 47 16 3f 40 7c 57 3e 11 c2 a6 3e
       0.23386118 0.5870314 0.21043491 0.32569936
000140 36 c8 9e 3e 77 0a a3 3e f0 c3 0e 3f bf c5 aa 3e
       0.31012124 0.31843922 0.55767727 0.33353993
000150 73 df ea 3e 87 a0 a9 3e 69 4a a4 3e bb b9 a5 3e
       0.45873603 0.33130285 0.3208802 0.32368264
000160 56 84 a9 3e 7b 07 9d 3e 95 05 85 3e da f0 98 3e
       0.33108777 0.3066977 0.2598082 0.29871255
000170 0b 1a 95 3e 98 e3 a1 3e b2 e8 a7 3e b3 b5 70 3e
       0.29121432 0.31618953 0.3279472 0.23506813
000180 81 f8 cc 3e dc 04 ab 3e fa c5 c9 3e d3 1e d8 3e
       0.40033343 0.33402145 0.39408857 0.42211017
000190 93 0e 69 3e a7 81 7d 3e cb 31 76 3e 27 a1 d7 3e
       0.22759466 0.2475649 0.24042432 0.42115137
0001a0 0b 6f a0 3e 85 34 65 3e dc 3a 58 3e 0e bf 0a 3f
       0.3133472 0.22383316 0.21116203 0.54197776
0001b0 66 11 84 3e a6 2a 85 3e ed 58 84 3e b1 27 71 3e
       0.25794524 0.260091 0.25849095 0.23550297
0001c0 a5 78 9a 3e 84 93 12 3f 15 c3 84 3e ef d6 f7 3e
       0.3017017 0.5725634 0.25930086 0.4840617
0001d0 c6 73 03 3f 0d 31 dc 3e 0b 84 42 3e f6 f7 ce 3e
       0.5134853 0.43006173 0.18995683 0.40423554
0001e0 d3 7c 8e 3e 65 e4 33 3e 59 5e 85 3e e4 df 76 3e
       0.27829608 0.17567594 0.26048544 0.24108845
0001f0 36 5b 67 3e 93 b1 1a 3f 8e 37 e7 3e 5f 83 83 3e
       0.22593388 0.60427207 0.45159572 0.25686166
000200 96 8d 77 3e 6d 7b c9 3e bb 9b 88 3e 2d 1d 32 3e
       0.24175104 0.3935198 0.26681313 0.17393942
000210 f5 53 0c 3f 3d 08 39 3e df 1a 89 3e 3b 09 91 3e
       0.5481561 0.18069549 0.26778314 0.28327355
000220 37 0f cc 3e 13 59 d4 3d 6c b6 ee 3e b2 0b b0 3e
       0.39855358 0.10368552 0.46623552 0.34383923
000230 6d 47 73 3e d1 9f 20 3e 33 a9 7b 3e 81 32 8c 3e
       0.23757716 0.15685965 0.24576263 0.2738228
000240 f4 dd bd 3e 88 b6 86 3e 6b f2 e8 3e 23 5f a1 3e
       0.370834 0.26311135 0.4549745 0.31517896
000250 b2 4c 86 3e 47 04 2f 3e 88 84 89 3e 06 0a a2 3e
       0.2623039 0.17091475 0.26858926 0.31648272
000260 6c 57 35 3f 88 60 4c 3e aa e1 a9 3e 40 4f ad 3e
       0.7083652 0.19958699 0.3317998 0.33849525
000270 c2 bc c8 3e 64 76 b3 3e d1 67 62 3e cc 6c 9d 3e
       0.3920651 0.35051262 0.22109915 0.30747068
000280 5d e2 e8 3e b5 d9 e1 3e 1c 8a 78 3e 49 c5 8b 3e
       0.454852 0.4411141 0.24271435 0.27298954
000290 bb be 8c 3e eb 34 dd 3e 42 fb c6 3e 55 1a 9c 3e
       0.27489266 0.43204436 0.3886357 0.3048884
0002a0 d9 f1 97 3e 25 51 86 3e f4 39 a1 3e a7 e6 ed 3e
       0.29676703 0.26233783 0.31489527 0.46465036
0002b0 73 a1 51 3e 59 74 94 3e a7 35 7c 3e fa e6 6e 3e
       0.20471744 0.28995016 0.24629842 0.23330298
0002c0 32 f5 a5 3e c7 1a 80 3e 27 c7 e4 3e 1a 11 9e 3e
       0.32413632 0.2502043 0.4468319 0.30872422
0002d0 65 92 de 3e e2 49 98 3e 56 04 09 3f fc 0b 8b 3e
       0.43471065 0.29743868 0.5352224 0.2715758
0002e0 7d ac 0c 3e a7 08 6c 3e 14 35 d1 3e 32 29 64 3e
       0.13737674 0.23050176 0.40860808 0.2228134
0002f0 f6 3f 6d 3e 46 e6 91 3e ee 1a 9f 3e 1f 9c c9 3e
       0.2316893 0.28495997 0.31075233 0.39376923
000300 6f 5b 7e 3e c4 ad cb 3e 73 75 82 3e 9c ff 5e 3f
       0.24839567 0.3978101 0.25480232 0.8710878
000310 9f cd 63 3e a8 e7 7b 3e 85 17 86 3e a1 22 c2 3e
       0.22246407 0.24600089 0.2618982 0.37917045
000320 57 79 0d 3f db 2a 7f 3e 4c 76 8e 3e e5 f2 40 3e
       0.55263275 0.24918692 0.27824628 0.18842657
000330 df db af 3e b6 54 84 3e 70 c7 39 3e 54 0a a9 3e
       0.34347436 0.2584588 0.18142486 0.33015692
000340 b8 d2 8c 3e 94 82 92 3e b5 0c bf 3e d8 e7 13 3f
       0.27504516 0.28615248 0.37314382 0.5777564
000350 fe 45 94 3e fe 3d df 3e 50 4f 07 3f 0c 3f 08 3f
       0.2895965 0.43601984 0.52855396 0.532212
000360 17 55 9e 3e 41 e1 f0 3e 60 9b 30 3e 93 e3 dd 3e
       0.30924293 0.47046855 0.17246771 0.43337688
000370 b2 4a 3f 3f d5 72 b8 3e d1 8e 86 3e 6d 94 9d 3e
       0.7472335 0.3602511 0.26280835 0.30777302
000380 2d 76 f0 3e a6 7a 9e 3e 85 63 48 3e a4 59 04 3f
       0.4696516 0.30952948 0.19569214 0.5169928
000390 a6 4f 81 3e fd 32 70 3e b6 92 7b 3e 40 95 80 3e
       0.2525608 0.2345695 0.24567685 0.2511387
0003a0 d7 30 99 3e 65 b7 59 3e 84 f6 ad 3e e6 a6 81 3e
       0.29920074 0.21261366 0.3397714 0.25322646
0003b0 5a 48 d3 3e 5a 03 79 3e 4d 81 38 3e 4c 18 ae 3e
       0.41266137 0.24317685 0.18018074 0.34002912
0003c0 89 67 9f 3e 25 96 a2 3e 47 02 85 3e 82 ec 91 3e
       0.3113368 0.31755176 0.259783 0.28500754
0003d0 72 75 ae 3e b7 9d 41 3e 49 31 16 3f 85 eb dc 3e
       0.3407398 0.1890782 0.58668953 0.43148437
0003e0 42 29 f8 3e 6d 2f e9 3e 32 7f 6a 3e ff a6 b6 3e
       0.48468977 0.45543995 0.22900084 0.35674283
0003f0 dc 9b bd 3e 21 ab de 3e c4 1a 50 3e 2c ad b5 3e
       0.37032974 0.43489936 0.2032271 0.35483682
